basline_model/BaseLine_MLP.pt (torch, 103887 bytes, 14 tensors)

fc1.weight f4 [128, 50]
0	0x3d1d691c	0.03843032
1	0xbde89a77	-0.11357587
2	0xbd6317d5	-0.05544265
3	0x3d8b40d0	0.067994714
4	0xbe365942	-0.17807487
5	0x3d5e4476	0.05426451
6	0xbdb57d90	-0.0886184
7	0x3d4717a2	0.048606522
8	0x3c1546a4	0.00911108
9	0xbc7b27a9	-0.01532928
10	0xbc4d2080	-0.012519956
11	0x3dd95857	0.106125526
12	0x3da8e68f	0.082471006
13	0xbd9f4810	-0.07777417
14	0x3cd98329	0.0265518
15	0xbd4d43d4	-0.050113514
16	0x3dff9d1d	0.12481139
17	0x3aaff085	0.0013423121
18	0x3e17ef87	0.14837466
19	0x3e1d6245	0.15369518
20	0x3d8027e8	0.062576115
21	0xbe2f79f1	-0.1713636
22	0x3d8fbd8e	0.070185766
23	0xbd072eb8	-0.03300354
24	0xbd44da39	-0.048059676
25	0x3ccdb808	0.025112167
26	0x3d87ed0f	0.06637012
27	0x3c908956	0.017643612
28	0xbdcf71f2	-0.10129155
29	0x3dce2598	0.10065764
30	0xbb1d8c60	-0.002403997
31	0x3e0df2ef	0.13862203
32	0x3d91411b	0.07092496
33	0xbe28bbbd	-0.16477866
34	0xbdafd9c5	-0.08586458
35	0x3d5b5cd0	0.05355531
36	0x3e18d14a	0.14923587
37	0xbd9b2964	-0.07576254
38	0x3d2043b0	0.03912705
39	0x3d1e581e	0.038658254
40	0x3e2a8750	0.1665318
41	0xbd396185	-0.045259017
42	0x3e81c437	0.25345013
43	0x3c8f7adf	0.017514644
44	0xbd659a97	-0.05605563
45	0x3bb39838	0.0054807924
46	0xbcc5a88e	-0.024128225
47	0x3cba389f	0.022732077
48	0xba65e908	-0.0008770381
49	0xbc887380	-0.016656637
50	0xbd681658	-0.056661934
51	0xbd48c194	-0.049012735
52	0x3d6d6613	0.057958674
53	0xbc0a6ec3	-0.008449259
54	0x3e23bfdc	0.15991157
55	0x3d941001	0.07229615
56	0x3d5aab2a	0.05338589
57	0xbdb63540	-0.088968754
58	0x3db10749	0.08643968
59	0x3c153886	0.0091077145
60	0xbe6082bc	-0.21924871
61	0x3e23bbec	0.15989655
62	0x3d5d8302	0.054080017
63	0x3e2e8db2	0.1704624
64	0xbdaa01b7	-0.08301108
65	0x3d1ca53e	0.038243525
66	0x3e1ef1e6	0.15521964
67	0xbc28ab20	-0.010294706
68	0xbd444713	-0.047919344
69	0xbd86a35f	-0.06574129
70	0x3d4351b0	0.047685325
71	0xbda10e66	-0.078640744
72	0x3d662242	0.056185015
73	0xbd2d3c27	-0.042293694
74	0x3d6d3e1a	0.057920553
75	0x3dbade92	0.09124483
76	0x3dc4ac5d	0.09603188
77	0x3be34f66	0.0069369553
78	0xbcbf7bc0	-0.023374438
79	0xbd11c8f8	-0.03559205
80	0xbe5a9718	-0.213467
81	0xbd49203f	-0.049103018
82	0x3da0a281	0.07843495
83	0x3cebc41b	0.028780034
84	0x3e4e8286	0.20166978
85	0xbdeb03f9	-0.11475367
86	0xbd97dfc3	-0.07415726
87	0x3e1b0b58	0.15141046
88	0x3c027f52	0.007964926
89	0xbd1cfaff	-0.038325306
90	0x3cbd1a4e	0.023083832
91	0xbe375792	-0.17904499
92	0xbd943376	-0.07236378
93	0xbe15dfba	-0.14636126
94	0xbdda6439	-0.10663647
95	0xbddfa65a	-0.10920401
96	0x3e0dad2c	0.13835591
97	0xbcc2c270	-0.023774356
98	0xbe13fb19	-0.14451255
99	0xbde1e473	-0.11029901
100	0x3dc30640	0.095226765
101	0xbd063b5d	-0.032771457
102	0x3bfef59e	0.0077807447
103	0xbd19489f	-0.037422772
104	0xbda6b918	-0.081407726
105	0xbd9b4744	-0.07581952
106	0x3de74b3e	0.11293648
107	0xbc97ff36	-0.018554311
108	0x3d95b7e3	0.07310464
109	0x3dace8be	0.084428295
110	0x3df216f5	0.11820785
111	0x3d64f8cc	0.055901334
112	0x3e4e0e6c	0.20122689
113	0xbcbff338	-0.023431405
114	0xbd3bbf99	-0.04583702
115	0x3da8f4e3	0.082498334
116	0x3db145c2	0.08655883
117	0x3d9e8467	0.077400975
118	0xbe4140aa	-0.18872324
119	0xbd3d7a6d	-0.046259332
120	0xbd9c969f	-0.07645916
121	0xbbb94d9e	-0.0056550046
122	0x3d72a541	0.05923963
123	0xbd61a4bf	-0.055088755
124	0x3ddc0eca	0.10745008
125	0xbe19aed4	-0.15008098
126	0xbe3e1bbb	-0.18565266
127	0xbd8e68ee	-0.069536075
128	0x3e167a42	0.14695075
129	0x3dfa7df6	0.122310564
130	0xbc1371a5	-0.008999263
131	0x3ba05e72	0.0048940713
132	0x3d6569e1	0.056009177
133	0x3d7edea4	0.062224045
134	0x3da4ef9e	0.08053516
135	0x3d8fa831	0.07014502
136	0x3e866eca	0.262564
137	0xbd7b37c9	-0.061332498
138	0xbe16b53e	-0.14717576
139	0xbdc1c974	-0.09462252
140	0xbdc5b0f0	-0.09652889
141	0x3ba9e07a	0.0051842304
142	0xbdffa7e3	-0.12483194
143	0x3e18c765	0.14919813
144	0x3dc18040	0.0944829
145	0xbd6019d0	-0.054712117
146	0x3dde0b88	0.10842043
147	0x3de1114e	0.10989629
148	0x3dfa7002	0.12228395
149	0x3da9baef	0.08287608
150	0x3d53d9c0	0.051721334
151	0x3ddd938d	0.10819159
152	0xbca0c8bf	-0.019626973
153	0xbd2d3aea	-0.042292513
154	0xbe303c4a	-0.17210498
155	0xbe12d52d	-0.14339133
156	0xbdafed69	-0.08590204
157	0xbddf738a	-0.10910709
158	0x3dab8cbc	0.08376452
159	0x3d4683eb	0.04846565
160	0xbe34db0d	-0.17661686
161	0xbd362b3a	-0.044474818
162	0x3dbd6de3	0.09249475
163	0x3e403a47	0.18772231
164	0xbd694c66	-0.056957625
165	0x3e0aab0e	0.13541815
166	0xbb3f1b43	-0.0029160536
167	0xbe2e0891	-0.16995455
168	0xbde0d61c	-0.10978338
169	0xbd7eb78c	-0.062186763
170	0xbdebb7a7	-0.11509638
171	0xbb342681	-0.002748877
172	0x3d0a6304	0.033785835
173	0x3e2912d1	0.16511084
174	0x3db094cc	0.08622131
175	0x3e6f2788	0.23354924
176	0x3db7d47b	0.08976074
177	0xbc2b501f	-0.010456114
178	0xbd6046a3	-0.054754864
179	0x3d8bcb81	0.06825925
180	0xbd8bead5	-0.068319
181	0xbcf343e0	-0.029695451
182	0xbe0b9879	-0.13632382
183	0x3cb40cc0	0.021978736
184	0xbe15a76f	-0.14614652
185	0x3d6bd8f1	0.05757994
186	0xbe26574c	-0.16244239
187	0xbdc4b631	-0.09605063
188	0x3da60d54	0.08108011
189	0xbcded162	-0.02719945
190	0x3d0d7197	0.034532156
191	0xbd888052	-0.066651
192	0xbd7c3c59	-0.06158099
193	0x3c1501ae	0.009094639
194	0xbd7f5ad6	-0.062342487
195	0xbdd8520e	-0.10562526
196	0x3e231002	0.15924075
197	0x3e028cfd	0.12749095
198	0x3df7c173	0.120974444
199	0xbde1286e	-0.109940395
200	0xbd852908	-0.06501967
201	0xbdbfe7c9	-0.093703814
202	0x3ddb2c72	0.10701837
203	0xbd0c41f6	-0.034242593
204	0x3e2b6cfd	0.16740794
205	0x3ce775f6	0.02825449
206	0x3de41a77	0.1113786
207	0x3d82a7e7	0.06379681
208	0x3ddec285	0.108769454
209	0xbc0587d7	-0.0081500625
210	0xbdc06e91	-0.09396089
211	0x3e090dfa	0.13384238
212	0xbe361466	-0.17781219
213	0x3e01b765	0.12667616
214	0x3c7f2477	0.015572659
215	0x3e76fad3	0.2411912
216	0x3dbe6cfc	0.09298131
217	0xbd59e6ff	-0.05319881
218	0xbdd0b51b	-0.10190793
219	0x3e56e516	0.20985827
220	0xbe3f7bad	-0.18699522
221	0x3d97d282	0.07413198
222	0xbce0c95f	-0.027439771
223	0xbe32a81e	-0.17446944
224	0x3d9fcdca	0.07802923
225	0x3d8e4257	0.06946247
226	0x3d5d3727	0.054007675
227	0x3d6b4fd1	0.057449166
228	0x3da810a6	0.082063004
229	0x3cc13e55	0.023589293
230	0xbdd6fddc	-0.104976386
231	0xbde8ea6a	-0.11372836
232	0x3e92e937	0.28693554
233	0xbd6a0bfb	-0.05714033
234	0xbd562d10	-0.05228907
235	0x3d115cf7	0.03548905
236	0xbd8b13be	-0.06790875
237	0x3da24240	0.079227924
238	0xbcba3a08	-0.02273275
239	0xbe5d434f	-0.21607707
240	0xbde30f14	-0.1108686
241	0xbdd06e41	-0.10177279
242	0x3d5d47a6	0.054023407
243	0xbd2e0122	-0.04248155
244	0xbd8ca4fc	-0.06867406
245	0x3d766bae	0.060161285
246	0xbdd7c584	-0.1053572
247	0xbe46c334	-0.19410402
248	0xbe3e0573	-0.18556766
249	0x3b0d292e	0.0021539438
250	0x3d4d49fa	0.050119378
251	0xbda8b75c	-0.08238098
252	0xbe0270d8	-0.12738359
253	0x3dcdd448	0.10050255
254	0x3ccd06d7	0.025027676
255	0xbdb4e236	-0.08832209

fc1.bias f4 [128]
0	0xbc4da033	-0.0125504015
1	0x3d8cd00f	0.068756215
2	0xbe107540	-0.14107227
3	0x3d9e7bcb	0.077384554
4	0x3deda553	0.11603799
5	0xbd7fd37c	-0.062457547
6	0x3dd3fd54	0.10351053
7	0x3dd6fb61	0.104971655
8	0x3d8ad8d3	0.06779637
9	0x3c15aa4b	0.009134839
10	0x3ddf6d87	0.109095626
11	0x3d6e5ee7	0.058195975
12	0xbc964bcf	-0.018346695
13	0x3de4ce4c	0.111721605
14	0xbdf163aa	-0.117865875
15	0xbd62602b	-0.055267494
16	0xbe06820b	-0.13135545
17	0x3dae7e0d	0.08520136
18	0x3dc154aa	0.094399765
19	0x3e0b068f	0.1357672
20	0xbe0db797	-0.13839565
21	0x3d23cfc2	0.039993055
22	0xbd93c22d	-0.072147705
23	0xbd8efea0	-0.069821596
24	0xbdb6f2b0	-0.08933008
25	0xbe0df228	-0.13861907
26	0xbd2d2946	-0.04227569
27	0x3d9fa1f6	0.077945635
28	0x3b08adaa	0.0020855465
29	0xbd868faa	-0.065703705
30	0xbcb5284d	-0.022113943
31	0xbd9cd4ec	-0.07657799
32	0xbd6b09b3	-0.057382297
33	0x3df4a9c1	0.119464405
34	0xbddcbcc7	-0.10778194
35	0x3d63a088	0.055573016
36	0xbdff146a	-0.124550655
37	0x3a4faf3b	0.0007922535
38	0x3d426335	0.047457892
39	0xbc033c58	-0.008009993
40	0x3de89faa	0.113585785
41	0x3d0ce8af	0.034401592
42	0xbcdac921	-0.026707234
43	0xbdf9c5a6	-0.121959016
44	0xbdbb27b6	-0.09138434
45	0x3d909c63	0.070610784
46	0x3dbdf6d1	0.09275592
47	0x3dcb5b36	0.099295065
48	0xbd0e6555	-0.034764607
49	0xbdcacfad	-0.09902892
50	0x3e013536	0.12617955
51	0xbdf43bcc	-0.11925468
52	0x3d59ceb1	0.053175632
53	0x3d958646	0.07301001
54	0x3d64fcc9	0.055905137
55	0x3df2a52c	0.1184791
56	0x3bf91a27	0.0076019946
57	0xbde9aa1c	-0.11409399
58	0xbc91dd6b	-0.017805776
59	0x3c329a12	0.010900991
60	0xbcde3663	-0.027125543
61	0x3d60e7d0	0.054908574
62	0x3d8df899	0.06932182
63	0xbd7b357b	-0.0613303
64	0xbd0b08ff	-0.033944126
65	0xbd33253c	-0.04373668
66	0xbd6c5c2b	-0.057705086
67	0xbdf89cb0	-0.12139261
68	0xbd5352d7	-0.051592674
69	0xbc94f687	-0.01818396
70	0xbdeaeaee	-0.114705905
71	0xbde2fd1d	-0.11083434
72	0x3df414b2	0.1191801
73	0x3dbd8cfd	0.09255407
74	0xbde7f67b	-0.11326309
75	0xbdb9588c	-0.09050092
76	0x3d565fcc	0.052337453
77	0x3d134828	0.035957485
78	0xbdc09274	-0.09402934
79	0xbc8d1f3a	-0.017226804
80	0xbdd73f57	-0.10510128
81	0xbbb320ec	-0.005466571
82	0xbdc70f9f	-0.09719776
83	0xbcaf7ba1	-0.021421256
84	0xbbf8df61	-0.007594988
85	0xbdacb55a	-0.084330276
86	0x3defdede	0.117124304
87	0xbcda8610	-0.026675254
88	0x3d94a87b	0.072586976
89	0x3ca7b0ef	0.02047011
90	0xbd7ef9b4	-0.062249854
91	0x3d9e0829	0.077164
92	0xbc5080df	-0.012726038
93	0xbd85f929	-0.06541664
94	0xbc931679	-0.017955052
95	0xbde4010b	-0.111330114
96	0xbccb7a06	-0.024838459
97	0x3d0f6e33	0.035017204
98	0x3dc5ac3b	0.09651991
99	0xbd844d2e	-0.06460033
100	0xbe081fa9	-0.13293327
101	0xbd98054e	-0.07422887
102	0xbd8bab9b	-0.068198405
103	0x3b6897dc	0.0035490906
104	0xbd587b32	-0.052851863
105	0x3dfe2739	0.12409825
106	0xbd3884d4	-0.04504855
107	0xbd041f68	-0.032256514
108	0xbdf67cf5	-0.120355524
109	0x3de13300	0.109960556
110	0x3dc91d60	0.09820056
111	0xbe02ff33	-0.12792663
112	0xbc1c1b5f	-0.00952801
113	0x3d84c9e3	0.06483819
114	0x3d908b3b	0.07057806
115	0xbd9fab6b	-0.07796367
116	0x3b5f3ebd	0.0034064495
117	0x3caed365	0.021341035
118	0xbddf4614	-0.10902038
119	0xbe081095	-0.13287576
120	0x3d3c2da2	0.045941956
121	0xbde871c0	-0.11349821
122	0x3d23b0d8	0.039963573
123	0xbd09d7c8	-0.03365305
124	0x3ba22b28	0.0049489923
125	0x3c8bfefb	0.017089358
126	0xbc5dbdec	-0.01353405
127	0xbd1a7361	-0.03770769

Bn1.weight f4 [128]
0	0x3f6e7210	0.93142796
1	0x3f704553	0.9385578
2	0x3f7ed3bc	0.9954183
3	0x3f76fd4c	0.9648025
4	0x3f75d0dc	0.9602182
5	0x3f7db650	0.9910631
6	0x3f7a8ef2	0.9787437
7	0x3f722429	0.94586426
8	0x3f76c8ff	0.96400446
9	0x3f7179bd	0.9432638
10	0x3f66cbc8	0.90154696
11	0x3f7ec0c0	0.99512863
12	0x3f84175c	1.0319629
13	0x3f75c889	0.9600912
14	0x3f7f69bd	0.9977072
15	0x3f7ec5e3	0.995207
16	0x3f894991	1.0725576
17	0x3f77e860	0.9683895
18	0x3f7b5bf1	0.98187166
19	0x3f75802e	0.9589871
20	0x3f74f178	0.9568095
21	0x3f716ced	0.9430683
22	0x3f704085	0.9384845
23	0x3f6e8dc4	0.9318507
24	0x3f717270	0.9431524
25	0x3f71f97d	0.94521314
26	0x3f635f19	0.8881698
27	0x3f7b6d1c	0.9821336
28	0x3f808413	1.0040306
29	0x3f760a2a	0.9610926
30	0x3f7c7d9a	0.9862915
31	0x3f7e7ae7	0.99406284
32	0x3f704a7a	0.9386364
33	0x3f73eb0d	0.95280534
34	0x3f6dcc31	0.92889696
35	0x3f6f037e	0.93364704
36	0x3f73855d	0.9512537
37	0x3f6ebf37	0.9326052
38	0x3f7b81e3	0.98245066
39	0x3f71e63e	0.94491947
40	0x3f817750	1.0114536
41	0x3f79a3e0	0.9751568
42	0x3f7989b9	0.97475773
43	0x3f804d8c	1.0023665
44	0x3f78bfc0	0.9716759
45	0x3f6b46ad	0.9190472
46	0x3f7b6027	0.9819359
47	0x3f8454be	1.0338361
48	0x3f83be6f	1.0292491
49	0x3f743e29	0.9540735
50	0x3f7c4f59	0.98558575
51	0x3f67f92f	0.906146
52	0x3f76688d	0.9625328
53	0x3f6df829	0.9295679
54	0x3f7ed736	0.99547136
55	0x3f7ce4fa	0.9878689
56	0x3f7df256	0.991979
57	0x3f851afb	1.0398859
58	0x3f790815	0.9727796
59	0x3f74db6f	0.9564733
60	0x3f74e409	0.95660454
61	0x3f7c72fc	0.9861295
62	0x3f7c200b	0.98486394
63	0x3f777847	0.96667904
64	0x3f77b94f	0.96767133
65	0x3f85b858	1.0446882
66	0x3f7829da	0.9693886
67	0x3f7335db	0.9500405
68	0x3f7ff93f	0.99989694
69	0x3f85491a	1.0412934
70	0x3f78c094	0.9716885
71	0x3f7fea74	0.9996712
72	0x3f753536	0.9578432
73	0x3f71e0af	0.94483465
74	0x3f7ede19	0.99557644
75	0x3f6b9efe	0.9203948
76	0x3f7ac90d	0.9796303
77	0x3f796fb2	0.9743606
78	0x3f65a799	0.8970886
79	0x3f76fd01	0.96479803
80	0x3f78146f	0.9690618
81	0x3f823962	1.0173762
82	0x3f6dcfb2	0.9289504
83	0x3f74b5ad	0.95589715
84	0x3f7a35e1	0.9773846
85	0x3f74cb56	0.95622766
86	0x3f7f8281	0.9980851
87	0x3f694ec8	0.91135836
88	0x3f7e41f0	0.9931936
89	0x3f7e8229	0.9941736
90	0x3f714cd1	0.9425784
91	0x3f7602ef	0.96098226
92	0x3f7b2238	0.9809909
93	0x3f735cf1	0.9506369
94	0x3f73e096	0.95264566
95	0x3f6bd4e9	0.9212175
96	0x3f8118eb	1.0085729
97	0x3f705f1f	0.93895143
98	0x3f71b129	0.9441095
99	0x3f81ca99	1.0139953
100	0x3f6eba2a	0.93252814
101	0x3f6ecdc2	0.9328271
102	0x3f6aa76f	0.91661733
103	0x3f794f9e	0.9738711
104	0x3f782333	0.9692871
105	0x3f6436e3	0.8914625
106	0x3f6cf972	0.92568123
107	0x3f7c8c41	0.9865151
108	0x3f6dc58b	0.9287955
109	0x3f76ed16	0.96455514
110	0x3f7e6512	0.9937297
111	0x3f802799	1.0012084
112	0x3f7af0dc	0.9802377
113	0x3f75eefe	0.960678
114	0x3f84f914	1.0388513
115	0x3f74e0ad	0.9565533
116	0x3f6b5746	0.91930044
117	0x3f728a01	0.9474183
118	0x3f849552	1.0358069
119	0x3f83bcfe	1.0292051
120	0x3f75eecf	0.9606752
121	0x3f804efb	1.0024103
122	0x3f75b1a4	0.95974183
123	0x3f7723dc	0.9653909
124	0x3f744b30	0.9542723
125	0x3f81a373	1.0128006
126	0x3f748a0a	0.9552313
127	0x3f6f27d3	0.9342014

Bn1.bias f4 [128]
0	0xbddb8f14	-0.10720649
1	0x3b3816c5	0.0028089744
2	0xbcb1ec86	-0.021719228
3	0xbc40fa5c	-0.01177844
4	0x3d94bc1b	0.07262441
5	0xbd4ca1fb	-0.049959164
6	0x3c2764b8	0.010216884
7	0xbdd6e1f3	-0.10492315
8	0xbd74a68e	-0.05972915
9	0xbdf4b208	-0.11948019
10	0xbe02795c	-0.12741607
11	0xbda1fb95	-0.079093136
12	0xbd675e89	-0.05648664
13	0xbcb8f5b4	-0.022578098
14	0xbd83c8ef	-0.064348094
15	0xbc03dbe2	-0.00804803
16	0x3a624dd2	0.0008632812
17	0xbd965a42	-0.07341434
18	0x3d023124	0.031785145
19	0xbdb142eb	-0.08655342
20	0xba9eb8e2	-0.0012109543
21	0xbc516461	-0.01278028
22	0xbda7fa9f	-0.08202099
23	0xbdb54baf	-0.08852326
24	0xbd3deb3a	-0.046366908
25	0xbd237202	-0.03990365
26	0xbb3275ac	-0.0027230782
27	0xbe031e3c	-0.12804502
28	0xbd07a59d	-0.033116926
29	0xbd0242ff	-0.031802174
30	0xbd7b398c	-0.061334178
31	0xbd289416	-0.04115685
32	0xbc850e8a	-0.016242284
33	0xbd1a2d70	-0.03764099
34	0xba1e9440	-0.00060493127
35	0xbe0b7389	-0.13618292
36	0xbd861e2d	-0.06548724
37	0xbd755ceb	-0.059903067
38	0xbd7aa394	-0.061191157
39	0xbd8e20e7	-0.069398694
40	0xbdffab8d	-0.124838926
41	0xbd257792	-0.040397234
42	0xbd9e8228	-0.07739669
43	0xbd6f1b80	-0.058375835
44	0xbd928c43	-0.07155659
45	0xbceed077	-0.029152138
46	0x3d41688d	0.047218848
47	0xbc834f8b	-0.01602914
48	0x3cb55905	0.022137174
49	0xbdb7ca3f	-0.08974122
50	0xbd7b694a	-0.06137971
51	0xbd0a6117	-0.033784
52	0xbcb8c7bd	-0.02255618
53	0xbd9b698e	-0.07588492
54	0xbda582cf	-0.080815904
55	0xbc5dce37	-0.013537935
56	0xbd34773e	-0.04405903
57	0x3cda7dd1	0.026671322
58	0xbd68e049	-0.05685452
59	0x3da17ffa	0.07885738
60	0xbbb24972	-0.0054408843
61	0xbda3b13c	-0.07992789
62	0xbd15fd73	-0.03661866
63	0x3c1aed98	0.009456061
64	0xbc31cc1f	-0.010851889
65	0xbe070394	-0.13184959
66	0xbde9290c	-0.11384782
67	0xbde75bc7	-0.11296802
68	0xbc8911c4	-0.016732104
69	0x3c9151f2	0.01773927
70	0xbd134e02	-0.035963066
71	0xbc727748	-0.014798947
72	0xbda18c38	-0.07888073
73	0xbd977513	-0.07395377
74	0x3b590c57	0.0033118927
75	0xbd4d5585	-0.050130386
76	0x3b499beb	0.00307631
77	0xbdb8c3a7	-0.09021693
78	0xbd1aaaaa	-0.037760414
79	0xbdb78f4a	-0.08962877
80	0xbdcc0cca	-0.09963377
81	0xbd16b2cd	-0.03679161
82	0xbd5aaf80	-0.053390026
83	0x3ce80bd5	0.028325954
84	0xbcacaa37	-0.021077259
85	0xbbfd6cdd	-0.007733925
86	0x3c01baac	0.007918041
87	0xbd635dae	-0.05550926
88	0x3c838ce2	0.01605839
89	0x3d0a2df8	0.033735245
90	0xbd9945c8	-0.07484013
91	0xbcf785d2	-0.030215178
92	0x3c9bdc66	0.019025993
93	0xbd44407b	-0.047913056
94	0xbc805dd9	-0.01566975
95	0xbddbdf18	-0.10735911
96	0xbd8ad8d9	-0.06779642
97	0xbb2c50e6	-0.0026293336
98	0xbd641f28	-0.055693775
99	0xbcc3cbff	-0.023900984
100	0xbd03e07c	-0.032196507
101	0x3e1a84f9	0.15089788
102	0x3c9c17d9	0.01905434
103	0xbc6e30e7	-0.014538026
104	0xbe14e9dc	-0.14542335
105	0xbda27b24	-0.079336435
106	0xbd123eff	-0.03570461
107	0xbd6d7be8	-0.057979494
108	0xbdd6b3a1	-0.1048348
109	0xbd94cf87	-0.07266145
110	0xbbfc2f41	-0.007696063
111	0xbcf89922	-0.030346457
112	0xbd81482b	-0.06312593
113	0xbd2d8d14	-0.04237087
114	0x3c7ed3e1	0.015553446
115	0x3d8f3b24	0.06993702
116	0xbd3b6edb	-0.045760017
117	0xbd059245	-0.032610197
118	0xbc63e0fb	-0.01390862
119	0x3baf8d6c	0.005357435
120	0xbd3d24b7	-0.046177592
121	0xbd02f9ad	-0.03197639
122	0xbd3b9242	-0.04579378
123	0xbdde841f	-0.10865044
124	0xbd979c4d	-0.07402859
125	0xbdd69106	-0.1047688
126	0xbd06378c	-0.032767817
127	0xbd084dd4	-0.033277348

Bn1.running_mean f4 [128]
0	0x3e396891	0.18106295
1	0xbebbb7c6	-0.36663646
2	0xbef3cf73	-0.4761921
3	0xbc66b888	-0.014082082
4	0xbe3fbf4d	-0.18725319
5	0xbf065831	-0.5247832
6	0xbddf6cb1	-0.10909403
7	0xbeb0157c	-0.3439139
8	0xbe7a9d51	-0.24474074
9	0xbe037e87	-0.12841235
10	0xbe9bc104	-0.30420697
11	0xbe61a86d	-0.22036906
12	0xbf393db9	-0.72359806
13	0xbe5c2da8	-0.21501791
14	0xbf1b6e12	-0.6071483
15	0xbee0dba8	-0.43917584
16	0xbecc1441	-0.39859203
17	0x3e4af9f6	0.19821915
18	0xbefc4930	-0.49274588
19	0xbbafbefe	-0.005363344
20	0xbeee4ba1	-0.46542075
21	0x3e1d2152	0.15344742
22	0xbda40381	-0.08008481
23	0xbf00a5b6	-0.50252855
24	0xbd9168cb	-0.07100066
25	0xbe9a7aed	-0.3017191
26	0xbde65707	-0.11247068
27	0xbea98021	-0.33105567
28	0xbeea8583	-0.45804986
29	0xbeaf946f	-0.34292933
30	0x3da69aa5	0.08134965
31	0xbee86490	-0.45389223
32	0xbe3c58cc	-0.18393248
33	0xbe036f1c	-0.12835354
34	0xbedcd9f8	-0.43135047
35	0xbeff9ea8	-0.49925733
36	0xbe86b570	-0.263103
37	0xbe30bbac	-0.17259091
38	0xbe2fc0b0	-0.17163348
39	0xbe215ce5	-0.15758093
40	0x3e8f9b76	0.28048295
41	0xbf0d0565	-0.55086356
42	0xbe67aa60	-0.22623587
43	0xbf0f38e4	-0.55946183
44	0xbeb75433	-0.35806426
45	0xbe09fee9	-0.13476147
46	0x3df5ddf5	0.120052256
47	0xbf0fb050	-0.56128407
48	0xbf04dcef	-0.5189962
49	0x3da76de2	0.08175255
50	0xbe41de17	-0.18932377
51	0xbddf7eb4	-0.109128386
52	0xbf03fe26	-0.51559675
53	0xbea2aee3	-0.31774053
54	0xbe49260b	-0.19643418
55	0x3da89f3e	0.08233498
56	0xbebbb2a9	-0.36659744
57	0xbe77b682	-0.24190715
58	0xbf0988b3	-0.5372421
59	0xbe933fbc	-0.28759563
60	0xbe028e6b	-0.1274964
61	0xbf224aa1	-0.63395125
62	0x3cc479cd	0.02398386
63	0xbec0adfc	-0.3763274
64	0xbe9c67c6	-0.30547923
65	0xbe1d81d7	-0.15381561
66	0x3ec8b25b	0.39198574
67	0xbccfad60	-0.025351226
68	0xbebc4ec4	-0.36778843
69	0x3efc2bed	0.49252263
70	0xbe76c85a	-0.24099866
71	0xbe42e620	-0.19033098
72	0x3cf3d2cc	0.029763602
73	0xbe9176cb	-0.28410944
74	0xbe85d4e6	-0.2613899
75	0xbef44a37	-0.4771287
76	0xbee5775c	-0.44817626
77	0x3e50063c	0.20314878
78	0xbed5bb58	-0.41744494
79	0x3e4f95df	0.20272015
80	0xbda7d727	-0.08195334
81	0x3e7d5f79	0.24743451
82	0xbf0bc712	-0.5460063
83	0xbe13fc0b	-0.14451616
84	0xbea5ea3b	-0.32405266
85	0xbea82bbe	-0.32845873
86	0xbf1334bd	-0.5750235
87	0xbeeb62ac	-0.45973718
88	0xbec0b52f	-0.37638232
89	0xbe8c0fe6	-0.2735588
90	0xbe8ae6b9	-0.27129152
91	0xbec36fbd	-0.38171187
92	0xbe8937c6	-0.26800364
93	0xbe91e7f6	-0.28497285
94	0xbe607f09	-0.2192346
95	0xbd485b09	-0.048914943
96	0xbee5dd01	-0.44895175
97	0xbe9b0a9d	-0.30281535
98	0xbeeeeae3	-0.4666358
99	0xbe9aae45	-0.30211082
100	0x3e7dc347	0.24781524
101	0xbf576e38	-0.84152555
102	0x3c319baa	0.010840336
103	0xbf05f626	-0.5232872
104	0xbf21c81c	-0.6319597
105	0xbe6edad4	-0.23325664
106	0xbf47aad8	-0.7799506
107	0xbf077893	-0.52918357
108	0xbe6d2b72	-0.23161104
109	0xbebe7b3a	-0.3720339
110	0x3ebc8629	0.36821106
111	0x3e55433b	0.20826428
112	0xbebbeb2c	-0.3670286
113	0xbe0ccf03	-0.13750844
114	0xbecb1df7	-0.396713
115	0xbec891ba	-0.3917368
116	0xbebe2511	-0.37137654
117	0x3e8632dd	0.2621068
118	0x3ca53229	0.02016552
119	0xbf31dbb5	-0.6947587
120	0xbf0e574b	-0.5560195
121	0xbebe2fb0	-0.37145758
122	0xbe92d23f	-0.2867603
123	0xbf258bef	-0.64666647
124	0xbdafbe4f	-0.0858122
125	0x3c82e70f	0.015979318
126	0x3df6bf88	0.120482504
127	0xbe317bae	-0.17332336

Bn1.running_var f4 [128]
0	0x3e54ed7a	0.20793715
1	0x3eb7e483	0.35916528
2	0x3e619217	0.22028385
3	0x3eab5271	0.33461335
4	0x3e62cd26	0.2214857
5	0x3e550c58	0.2080549
6	0x3e762a41	0.24039556
7	0x3e6aedba	0.22942248
8	0x3e83f4ae	0.25772613
9	0x3e790126	0.24316844
10	0x3df364ba	0.118844464
11	0x3e929ddc	0.28636062
12	0x3e6d63ce	0.23182604
13	0x3e8cab34	0.27474368
14	0x3e570d58	0.21001184
15	0x3eaaa75c	0.3333081
16	0x3e6c24e7	0.23060952
17	0x3e5a0cfd	0.21294017
18	0x3e54fe4e	0.20800135
19	0x3e453a99	0.19260634
20	0x3eefada6	0.4681217
21	0x3e4c9aeb	0.19980972
22	0x3e091540	0.13387012
23	0x3e610981	0.21976282
24	0x3e291e33	0.16515426
25	0x3e82d6e4	0.25554574
26	0x3e40bd2f	0.18822168
27	0x3eb3dadf	0.35127923
28	0x3e70deec	0.23522538
29	0x3ebefba5	0.37301365
30	0x3e5f3466	0.21797332
31	0x3e999005	0.2999269
32	0x3e6ee38b	0.23328988
33	0x3e5ed4a9	0.21760811
34	0x3e7edd35	0.24889071
35	0x3e6970d5	0.22796948
36	0x3e82f448	0.25576997
37	0x3e970400	0.2949524
38	0x3e95b415	0.29238954
39	0x3e15d921	0.1463361
40	0x3e936fbd	0.28796187
41	0x3e81c112	0.25342613
42	0x3ea16e5b	0.31529507
43	0x3e6c0622	0.23049214
44	0x3e79756c	0.24361199
45	0x3ea3dac7	0.3200285
46	0x3ea5a17b	0.32349762
47	0x3e96cbc8	0.29452348
48	0x3e900789	0.2813075
49	0x3e27a57c	0.16371721
50	0x3e511472	0.20417956
51	0x3e8800d6	0.26563138
52	0x3e87e497	0.26541588
53	0x3e888a37	0.2666795
54	0x3e975a42	0.2956105
55	0x3ec7c4b2	0.39017254
56	0x3e56deed	0.20983477
57	0x3e86a7e1	0.26299956
58	0x3e6ea3ae	0.23304626
59	0x3e977f3f	0.2958927
60	0x3e7201d3	0.23633508
61	0x3ed5b607	0.41740438
62	0x3e4c47c9	0.19949259
63	0x3ec7c2b8	0.39015746
64	0x3e60cc03	0.21952824
65	0x3e74d776	0.23910317
66	0x3e4ca126	0.19983348
67	0x3e81c880	0.25348282
68	0x3e8434c0	0.25821495
69	0x3e3c6b2a	0.18400255
70	0x3e5717c2	0.21005157
71	0x3ea3f969	0.32026222
72	0x3e668f61	0.22515632
73	0x3ebd3b38	0.36959243
74	0x3e7b8388	0.24561894
75	0x3e3159aa	0.1731936
76	0x3e691d64	0.22765118
77	0x3e8d8114	0.2763754
78	0x3e1735d0	0.14766622
79	0x3e4804da	0.195331
80	0x3ec69d16	0.38791722
81	0x3e8977ef	0.26849315
82	0x3e4f9eb5	0.20275386
83	0x3e28c617	0.16481815
84	0x3e85d023	0.26135358
85	0x3e3f5631	0.18685223
86	0x3e8f1ec6	0.27953166
87	0x3e8f0744	0.2793523
88	0x3e9a1bfe	0.3009948
89	0x3e69942f	0.22810434
90	0x3e93dbf9	0.28878763
91	0x3e6b10cc	0.22955626
92	0x3e7f1893	0.24911718
93	0x3e02e968	0.1278435
94	0x3e7c36d9	0.24630298
95	0x3e8898fa	0.26679212
96	0x3e5c3421	0.2150426
97	0x3e520a47	0.20511733
98	0x3eabfa75	0.3358952
99	0x3e579bf3	0.21055584
100	0x3e615ca0	0.2200799
101	0x3e986946	0.29767817
102	0x3e3dfc2d	0.18553229
103	0x3e92e9dc	0.28694046
104	0x3ecace27	0.39610407
105	0x3e7954da	0.24348775
106	0x3e3e0303	0.18555836
107	0x3ecdb49a	0.4017685
108	0x3e6964e0	0.22792387
109	0x3e51ec0b	0.205002
110	0x3edd392c	0.4320768
111	0x3e1ca21d	0.15296216
112	0x3e8b3c68	0.27194524
113	0x3e84f17a	0.25965482
114	0x3e989634	0.29802096
115	0x3e808474	0.25101054
116	0x3e85317a	0.2601431
117	0x3e6a055f	0.22853611
118	0x3e97da38	0.29658675
119	0x3ebbfee6	0.3671791
120	0x3e9350a0	0.2877245
121	0x3e876b7a	0.26449186
122	0x3e8e1a9d	0.2775468
123	0x3e5a458a	0.2131559
124	0x3e1b0601	0.15139009
125	0x3e2cf12b	0.16888873
126	0x3e597460	0.212358
127	0x3e52a52f	0.20570825

fc2.weight f4 [128, 128]
0	0xbd0862b0	-0.03329724
1	0xbbc07d50	-0.0058743134
2	0xbc1c8917	-0.009554169
3	0x3db850be	0.08999775
4	0x3d6f0430	0.058353603
5	0xbc00ecbf	-0.007868945
6	0x3d2e46d8	0.04254803
7	0x3c1baaeb	0.009501199
8	0x3d911352	0.07083763
9	0x3bf8adb1	0.007589065
10	0xbdb6fbee	-0.089347705
11	0x3d8a29c5	0.06746248
12	0x3c8573ba	0.016290534
13	0xbda66954	-0.081255585
14	0x3c8ca549	0.017168658
15	0xbcbee234	-0.023301221
16	0xbd86921f	-0.06570839
17	0xbcaff75d	-0.021480257
18	0x3d260c80	0.040539265
19	0xba952af0	-0.0011380594
20	0xbd9490ad	-0.07254157
21	0xbd5bc39e	-0.053653352
22	0xbc5f5364	-0.013630722
23	0x3d1d3f1c	0.038390264
24	0x3d19b4c7	0.03752592
25	0x3e1643cb	0.14674298
26	0x3d1bba18	0.03801927
27	0xbd26c2f5	-0.04071327
28	0xbc95934f	-0.018258719
29	0xbd721065	-0.059097666
30	0x3d132cf1	0.03593153
31	0xbb48571b	-0.0030569497
32	0x3dd11d44	0.1021066
33	0x3d52d39b	0.051471334
34	0x3d83dfcb	0.064391695
35	0x3d56f99f	0.05248415
36	0xbcf525b0	-0.029925197
37	0x3d123dd0	0.03570348
38	0xbd32777e	-0.043570988
39	0xbd9fbce4	-0.077997
40	0x3dbdaeb8	0.092618406
41	0xbd6afb8a	-0.057368793
42	0x3d5c65a4	0.05380787
43	0x3ca66976	0.02031396
44	0xbd0c38ea	-0.034233965
45	0xbcda7a2f	-0.02666959
46	0x3d422172	0.047395177
47	0xbd215b68	-0.039393812
48	0xbd868063	-0.065674566
49	0x3d82066f	0.06348883
50	0x3b7940b3	0.0038032949
51	0x3d059fdf	0.032623168
52	0x3dd863ce	0.10565911
53	0x3d434ae1	0.047678832
54	0xbc51efb7	-0.0128135
55	0xbd1dceb7	-0.038527217
56	0x3df5926b	0.11990818
57	0xbcf35964	-0.02970571
58	0x3d3a29ca	0.04545001
59	0xbd4c3449	-0.04985455
60	0x3ce84dbb	0.028357377
61	0x3d610238	0.054933757
62	0xbda32da3	-0.07967689
63	0x3d74d9f7	0.05977818
64	0x3cb5347a	0.02211975
65	0xbd4f2bec	-0.050578997
66	0x3d367882	0.04454852
67	0xbd098338	-0.033572406
68	0xbd5fd8a5	-0.054649968
69	0x3e1c6440	0.15272617
70	0x3dd21e49	0.10259683
71	0xbcd52359	-0.026017832
72	0xbd85407c	-0.0650644
73	0xbd1b79e1	-0.03795803
74	0x3db158a3	0.08659484
75	0x3cd7ff2c	0.026366793
76	0xbd9fcbef	-0.07802569
77	0x3d876c98	0.066125095
78	0x3c0156f8	0.00789427
79	0x399befa7	0.0002974246
80	0xbdfa2ac6	-0.1221519
81	0x3d2553b3	0.040363025
82	0x3c654777	0.013994089
83	0x3d369ac1	0.04458118
84	0x3dbfc226	0.09363203
85	0x3b880f41	0.004152209
86	0xbde3c913	-0.11122336
87	0xbd667e7c	-0.05627297
88	0x3dc31982	0.095263496
89	0x3dc77799	0.09739608
90	0xbde3844d	-0.11109219
91	0xbd7b738c	-0.06138949
92	0x3ddc6b18	0.10762614
93	0xbc2ad983	-0.010427835
94	0x3d1a41e5	0.0376605
95	0xbd0220a3	-0.031769406
96	0x3c03cd44	0.008044545
97	0xba384be2	-0.00070303504
98	0x3d611dcc	0.054960057
99	0xbd0d7c47	-0.03454235
100	0x3d008f0e	0.031386428
101	0xbcb36c4f	-0.021902231
102	0xbdb6bae0	-0.08922362
103	0x3c470dd9	0.012149298
104	0x3d008fcb	0.03138713
105	0xbd192f63	-0.037398707
106	0xbd0e09b4	-0.034677222
107	0x3d6819bf	0.05666518
108	0xbcc98687	-0.02460028
109	0x3c1402b3	0.009033847
110	0x3d897c0d	0.06713114
111	0x3d4eb8ed	0.050469328
112	0xbc1fa060	-0.009742826
113	0xbda59284	-0.08084586
114	0xbd4f812b	-0.050660294
115	0xba325f13	-0.00068043283
116	0xbc86f749	-0.016475337
117	0xbc8e20d7	-0.017349644
118	0x3d78f976	0.06078478
119	0xbdd7e746	-0.10542159
120	0x3d40d37b	0.047076683
121	0x3d7ca6d2	0.06168253
122	0x3d53bee5	0.051695723
123	0x3d1f662b	0.038915794
124	0x3e13bf0f	0.14428352
125	0xbc6f649e	-0.014611391
126	0xbd2e4f4a	-0.042556085
127	0xbca73357	-0.020410223
128	0x3db7002b	0.08935579
129	0xbcd9ed73	-0.026602482
130	0xbd04d093	-0.032425474
131	0xbde1d3c1	-0.11026717
132	0xbd580dd5	-0.052747566
133	0xbdca43e7	-0.098762326
134	0xbdde906b	-0.10867389
135	0xbd0fd26f	-0.035112794
136	0x3ba2dff8	0.004970547
137	0xbdfc9b0b	-0.123342596
138	0x3d29f22c	0.04149072
139	0x3c822402	0.01588631
140	0xbcafca7e	-0.02145886
141	0x3d385fd7	0.045013275
142	0xbd215c0e	-0.03939443
143	0x3c43b7f1	0.0119457105
144	0xbcb48813	-0.022037541
145	0x3ddd83cc	0.10816154
146	0xbd488b90	-0.048961222
147	0xbbac9911	-0.0052672704
148	0xbde5d6e0	-0.11222625
149	0xbde5ac4c	-0.11214504
150	0xbb87599c	-0.0041305553
151	0xbd98d301	-0.07462121
152	0xbcd04db1	-0.025427671
153	0xbd154f8a	-0.036452807
154	0xbd7c20c8	-0.0615547
155	0x3d53e950	0.051736176
156	0xbe1c15ae	-0.15242645
157	0xbd11e1a4	-0.03561558
158	0xbdbff00f	-0.093719594
159	0x3deb0cdc	0.11477062
160	0xbd11c26f	-0.035585817
161	0x3c9e8634	0.019351102
162	0x3ce123bd	0.027482862
163	0xbd09fca8	-0.033688217
164	0xbdafeef3	-0.08590498
165	0xbd380059	-0.044922207
166	0xbb93a3a7	-0.004505593
167	0xbd426c2a	-0.047466435
168	0xbb17468f	-0.0023082828
169	0xbd77d780	-0.06050825
170	0xbd985315	-0.07437722
171	0x3ccdfb1a	0.025144149
172	0xbda95c2b	-0.08269533
173	0xbd2ceb91	-0.04221684
174	0x3db15e8c	0.086606115
175	0xbd72c279	-0.059267495
176	0xbcd570c6	-0.026054751
177	0xbdd5427c	-0.104130715
178	0xbdaca747	-0.08430343
179	0x3da85854	0.08219972
180	0xbcb84676	-0.022494536
181	0x3ba2ce4e	0.004968441
182	0xbdcfcdd7	-0.10146683
183	0xbd847607	-0.064678244
184	0xbd7c059f	-0.0615288
185	0x3d94e63c	0.07270476
186	0x3d8d0c1e	0.06887077
187	0x3d4347f4	0.04767604
188	0xbdd32549	-0.10309846
189	0x3d19b9c7	0.037530687
190	0xbdb92ff6	-0.09042351
191	0x3d9312b0	0.07181299
192	0xbcb41cff	-0.021986483
193	0x3d834485	0.064095534
194	0xbd9ec556	-0.077524826
195	0xbdc3ed81	-0.09566785
196	0x3bbcbcfe	0.0057598343
197	0xbdd6d2cd	-0.10489426
198	0xbd93d5da	-0.07218523
199	0xbc298502	-0.010346653
200	0x3d3a7471	0.045521203
201	0xbd81ed91	-0.0634414
202	0x3d39c2b2	0.04535169
203	0x3d4dc8e0	0.050240397
204	0xbb19ddc2	-0.0023478125
205	0xbc2b0af9	-0.010439628
206	0xbd25bae8	-0.04046145
207	0x3d268d08	0.04066184
208	0x3d940650	0.072277665
209	0xbd92b4e4	-0.071634084
210	0x3d7845db	0.060613494
211	0xbdc40ed5	-0.095731415
212	0xbc8ec5ac	-0.017428242
213	0xbd210089	-0.03930715
214	0x3cc5c242	0.02414048
215	0x3cbb29f6	0.022847157
216	0xbdaf1c25	-0.0855029
217	0xbc5dea61	-0.01354465
218	0x3c3b87a2	0.011445912
219	0xbcbf9385	-0.023385772
220	0x3d9aa47c	0.07550904
221	0xbaa47b41	-0.001254894
222	0xbdc5c601	-0.09656907
223	0x3c3d791b	0.011564518
224	0xbd5b41c3	-0.053529512
225	0x3d8725fd	0.065990426
226	0x3d827403	0.06369784
227	0x3d58b427	0.05290618
228	0x3d515ad6	0.05111202
229	0xbb263434	-0.0025360705
230	0x3caa55bf	0.02079284
231	0xbdcf2eb5	-0.101163305
232	0xbc6903ba	-0.01422208
233	0x3cc517e1	0.024059238
234	0xbe3068cb	-0.17227475
235	0x3d8a6f4e	0.06759511
236	0xbb98752a	-0.004652639
237	0xbddf5d01	-0.10906411
238	0xbcf4591c	-0.029827647
239	0x3c8ac5db	0.016940048
240	0x3d9cf37b	0.07663628
241	0x3cb2158e	0.021738794
242	0x3b64996d	0.0034881488
243	0x3da6e246	0.08148627
244	0xbd16e3e0	-0.036838412
245	0xbda6cc40	-0.08144426
246	0x3c47c02d	0.012191814
247	0xbd33af8f	-0.043868598
248	0x3dc8d733	0.09806671
249	0xbd3e37ae	-0.04643982
250	0xbd87b7a3	-0.06626823
251	0xbdb88e9d	-0.09011576
252	0xbe065382	-0.13117793
253	0xbd24ede9	-0.04026595
254	0x3c15dbfc	0.009146687
255	0xbcf5122d	-0.029915893

fc2.bias f4 [128]
0	0xbad2ccb6	-0.0016082737
1	0x3ccdc5dd	0.025118763
2	0xbd9eb001	-0.07748414
3	0x3c2fadea	0.010722617
4	0x3d0a30f9	0.03373811
5	0xbd675e20	-0.05648625
6	0x3d9d3891	0.07676805
7	0xbd796e7f	-0.060896393
8	0xbd3ff383	-0.04686309
9	0xbc924976	-0.017857295
10	0xbda4d5c7	-0.08048587
11	0xbdae0881	-0.08497716
12	0xbd7fbe96	-0.062437616
13	0x3d459fc4	0.048248067
14	0xbd39b034	-0.045334056
15	0xbd9195ea	-0.07108672
16	0x3cc19b0a	0.023633499
17	0xbd023206	-0.031785987
18	0xbc2f6b36	-0.010706713
19	0x3da9c2d8	0.082891166
20	0x3d0fa3a8	0.035068184
21	0xbc858d4f	-0.016302733
22	0xbc273295	-0.010204931
23	0x3d07acc1	0.033123735
24	0xbb992649	-0.0046737534
25	0xbd8d04b9	-0.068856664
26	0x3d401e95	0.046904165
27	0xbd578cb9	-0.052624438
28	0xbd6cb19f	-0.05778658
29	0xbbd57d20	-0.00651516
30	0x3cc94b9f	0.024572192
31	0xbcf92c1a	-0.030416537
32	0x3cc5b337	0.024133308
33	0x3d764bb5	0.060130794
34	0x3d1afb9e	0.037837617
35	0x3bd569e1	0.006512866
36	0xbd2dac80	-0.042400837
37	0x3d0d0af5	0.034434278
38	0xbd80978e	-0.06278907
39	0xbd96248d	-0.0733119
40	0xbcfc1127	-0.030769898
41	0x3d6d215c	0.057893142
42	0x3da9358b	0.08262166
43	0x3da15557	0.078776054
44	0xbc75cd77	-0.0150026
45	0xbd2ff8a1	-0.04296172
46	0x3d85d0ba	0.06533952
47	0x3d842657	0.06452625
48	0xbd9d82b7	-0.076909475
49	0xbd88bfd4	-0.06677213
50	0xbd8bb25f	-0.06821131
51	0xbd7a3bb6	-0.0610921
52	0x3bd74c9d	0.0065704123
53	0xbd1f2494	-0.038853243
54	0x3c27cd7c	0.010241862
55	0x3da04a77	0.07826703
56	0x3d901bbe	0.070365414
57	0xbd4b3578	-0.04961154
58	0xbd7a4ce7	-0.061108496
59	0xbd80ef54	-0.06295648
60	0x3d165f58	0.03671202
61	0xbd2ff8ca	-0.042961873
62	0x3d0f30d3	0.03495867
63	0xbd98244c	-0.07428798
64	0xbd8f4790	-0.06996071
65	0x3d71d640	0.059042215
66	0xbcc1cf00	-0.023658276
67	0xbd9d6863	-0.07685926
68	0xbd110c3a	-0.03541205
69	0x3d1f2d7e	0.038861744
70	0x3b938ee3	0.0045031174
71	0x3ab52f76	0.0013823349
72	0x3d95c9cb	0.073138796
73	0x3c948778	0.018131003
74	0xbdad6709	-0.08466918
75	0x3d46a505	0.04849722
76	0xbcce4b31	-0.025182338
77	0x3d4f6025	0.0506288
78	0xbc8f9dc2	-0.01753128
79	0x3d7f8c15	0.062389452
80	0x3d9af7f2	0.07566823
81	0x3d10f045	0.03538539
82	0xbd37310e	-0.044724517
83	0x3cb9381b	0.022609761
84	0x3d6f72b8	0.058459014
85	0xbc20bd80	-0.009810805
86	0xbd30eb01	-0.043192867
87	0xbdac97ed	-0.08427415
88	0xbc29a23b	-0.01035362
89	0x3dab56f4	0.08366194
90	0x399b930b	0.0002967346
91	0xba2325a4	-0.00062235654
92	0xbcfbcb10	-0.030736476
93	0x3c323dc8	0.010878988
94	0x3c3ea2bc	0.011635479
95	0x3d0e159b	0.034688573
96	0x3d975e15	0.073909916
97	0x3d8d2b89	0.06893069
98	0x3d908821	0.070572145
99	0x3c7c732c	0.0154083185
100	0xbd6c9840	-0.057762384
101	0xbdafe89f	-0.08589291
102	0x3d41f3f6	0.0473518
103	0x3cc776f4	0.024348713
104	0xbd2d4c6e	-0.042309217
105	0x3d0ed2c2	0.034868963
106	0xbda30fc4	-0.079619914
107	0x3daffba0	0.085929155
108	0x3da1484c	0.07875118
109	0x3c618e0e	0.013766779
110	0x3cd675a1	0.026179137
111	0x3d2c3dc9	0.04205111
112	0xbd3b45aa	-0.045720734
113	0x3c88d44c	0.016702794
114	0x3c39708b	0.011318336
115	0x3d5a37cf	0.05327588
116	0xbd9db5e5	-0.07700709
117	0x3d330b4a	0.043711938
118	0x3bb6ef47	0.0055827233
119	0x3d372866	0.04471626
120	0xbd408b74	-0.047007993
121	0x3c78496f	0.015154227
122	0xbcc1f07a	-0.023674238
123	0x3cd577e3	0.026058143
124	0xbdaaace5	-0.08333758
125	0xbd7fc2df	-0.062441703
126	0x3d07d63e	0.0331633
127	0x3d66de17	0.056364145

Bn2.weight f4 [128]
0	0x3f800000	1.0
1	0x3f800000	1.0
2	0x3f800000	1.0
3	0x3f800000	1.0
4	0x3f800000	1.0
5	0x3f800000	1.0
6	0x3f800000	1.0
7	0x3f800000	1.0
8	0x3f800000	1.0
9	0x3f800000	1.0
10	0x3f800000	1.0
11	0x3f800000	1.0
12	0x3f800000	1.0
13	0x3f800000	1.0
14	0x3f800000	1.0
15	0x3f800000	1.0
16	0x3f800000	1.0
17	0x3f800000	1.0
18	0x3f800000	1.0
19	0x3f800000	1.0
20	0x3f800000	1.0
21	0x3f800000	1.0
22	0x3f800000	1.0
23	0x3f800000	1.0
24	0x3f800000	1.0
25	0x3f800000	1.0
26	0x3f800000	1.0
27	0x3f800000	1.0
28	0x3f800000	1.0
29	0x3f800000	1.0
30	0x3f800000	1.0
31	0x3f800000	1.0
32	0x3f800000	1.0
33	0x3f800000	1.0
34	0x3f800000	1.0
35	0x3f800000	1.0
36	0x3f800000	1.0
37	0x3f800000	1.0
38	0x3f800000	1.0
39	0x3f800000	1.0
40	0x3f800000	1.0
41	0x3f800000	1.0
42	0x3f800000	1.0
43	0x3f800000	1.0
44	0x3f800000	1.0
45	0x3f800000	1.0
46	0x3f800000	1.0
47	0x3f800000	1.0
48	0x3f800000	1.0
49	0x3f800000	1.0
50	0x3f800000	1.0
51	0x3f800000	1.0
52	0x3f800000	1.0
53	0x3f800000	1.0
54	0x3f800000	1.0
55	0x3f800000	1.0
56	0x3f800000	1.0
57	0x3f800000	1.0
58	0x3f800000	1.0
59	0x3f800000	1.0
60	0x3f800000	1.0
61	0x3f800000	1.0
62	0x3f800000	1.0
63	0x3f800000	1.0
64	0x3f800000	1.0
65	0x3f800000	1.0
66	0x3f800000	1.0
67	0x3f800000	1.0
68	0x3f800000	1.0
69	0x3f800000	1.0
70	0x3f800000	1.0
71	0x3f800000	1.0
72	0x3f800000	1.0
73	0x3f800000	1.0
74	0x3f800000	1.0
75	0x3f800000	1.0
76	0x3f800000	1.0
77	0x3f800000	1.0
78	0x3f800000	1.0
79	0x3f800000	1.0
80	0x3f800000	1.0
81	0x3f800000	1.0
82	0x3f800000	1.0
83	0x3f800000	1.0
84	0x3f800000	1.0
85	0x3f800000	1.0
86	0x3f800000	1.0
87	0x3f800000	1.0
88	0x3f800000	1.0
89	0x3f800000	1.0
90	0x3f800000	1.0
91	0x3f800000	1.0
92	0x3f800000	1.0
93	0x3f800000	1.0
94	0x3f800000	1.0
95	0x3f800000	1.0
96	0x3f800000	1.0
97	0x3f800000	1.0
98	0x3f800000	1.0
99	0x3f800000	1.0
100	0x3f800000	1.0
101	0x3f800000	1.0
102	0x3f800000	1.0
103	0x3f800000	1.0
104	0x3f800000	1.0
105	0x3f800000	1.0
106	0x3f800000	1.0
107	0x3f800000	1.0
108	0x3f800000	1.0
109	0x3f800000	1.0
110	0x3f800000	1.0
111	0x3f800000	1.0
112	0x3f800000	1.0
113	0x3f800000	1.0
114	0x3f800000	1.0
115	0x3f800000	1.0
116	0x3f800000	1.0
117	0x3f800000	1.0
118	0x3f800000	1.0
119	0x3f800000	1.0
120	0x3f800000	1.0
121	0x3f800000	1.0
122	0x3f800000	1.0
123	0x3f800000	1.0
124	0x3f800000	1.0
125	0x3f800000	1.0
126	0x3f800000	1.0
127	0x3f800000	1.0

Bn2.bias f4 [128]
0	0x00000000	0.0
1	0x00000000	0.0
2	0x00000000	0.0
3	0x00000000	0.0
4	0x00000000	0.0
5	0x00000000	0.0
6	0x00000000	0.0
7	0x00000000	0.0
8	0x00000000	0.0
9	0x00000000	0.0
10	0x00000000	0.0
11	0x00000000	0.0
12	0x00000000	0.0
13	0x00000000	0.0
14	0x00000000	0.0
15	0x00000000	0.0
16	0x00000000	0.0
17	0x00000000	0.0
18	0x00000000	0.0
19	0x00000000	0.0
20	0x00000000	0.0
21	0x00000000	0.0
22	0x00000000	0.0
23	0x00000000	0.0
24	0x00000000	0.0
25	0x00000000	0.0
26	0x00000000	0.0
27	0x00000000	0.0
28	0x00000000	0.0
29	0x00000000	0.0
30	0x00000000	0.0
31	0x00000000	0.0
32	0x00000000	0.0
33	0x00000000	0.0
34	0x00000000	0.0
35	0x00000000	0.0
36	0x00000000	0.0
37	0x00000000	0.0
38	0x00000000	0.0
39	0x00000000	0.0
40	0x00000000	0.0
41	0x00000000	0.0
42	0x00000000	0.0
43	0x00000000	0.0
44	0x00000000	0.0
45	0x00000000	0.0
46	0x00000000	0.0
47	0x00000000	0.0
48	0x00000000	0.0
49	0x00000000	0.0
50	0x00000000	0.0
51	0x00000000	0.0
52	0x00000000	0.0
53	0x00000000	0.0
54	0x00000000	0.0
55	0x00000000	0.0
56	0x00000000	0.0
57	0x00000000	0.0
58	0x00000000	0.0
59	0x00000000	0.0
60	0x00000000	0.0
61	0x00000000	0.0
62	0x00000000	0.0
63	0x00000000	0.0
64	0x00000000	0.0
65	0x00000000	0.0
66	0x00000000	0.0
67	0x00000000	0.0
68	0x00000000	0.0
69	0x00000000	0.0
70	0x00000000	0.0
71	0x00000000	0.0
72	0x00000000	0.0
73	0x00000000	0.0
74	0x00000000	0.0
75	0x00000000	0.0
76	0x00000000	0.0
77	0x00000000	0.0
78	0x00000000	0.0
79	0x00000000	0.0
80	0x00000000	0.0
81	0x00000000	0.0
82	0x00000000	0.0
83	0x00000000	0.0
84	0x00000000	0.0
85	0x00000000	0.0
86	0x00000000	0.0
87	0x00000000	0.0
88	0x00000000	0.0
89	0x00000000	0.0
90	0x00000000	0.0
91	0x00000000	0.0
92	0x00000000	0.0
93	0x00000000	0.0
94	0x00000000	0.0
95	0x00000000	0.0
96	0x00000000	0.0
97	0x00000000	0.0
98	0x00000000	0.0
99	0x00000000	0.0
100	0x00000000	0.0
101	0x00000000	0.0
102	0x00000000	0.0
103	0x00000000	0.0
104	0x00000000	0.0
105	0x00000000	0.0
106	0x00000000	0.0
107	0x00000000	0.0
108	0x00000000	0.0
109	0x00000000	0.0
110	0x00000000	0.0
111	0x00000000	0.0
112	0x00000000	0.0
113	0x00000000	0.0
114	0x00000000	0.0
115	0x00000000	0.0
116	0x00000000	0.0
117	0x00000000	0.0
118	0x00000000	0.0
119	0x00000000	0.0
120	0x00000000	0.0
121	0x00000000	0.0
122	0x00000000	0.0
123	0x00000000	0.0
124	0x00000000	0.0
125	0x00000000	0.0
126	0x00000000	0.0
127	0x00000000	0.0

Bn2.running_mean f4 [128]
0	0x00000000	0.0
1	0x00000000	0.0
2	0x00000000	0.0
3	0x00000000	0.0
4	0x00000000	0.0
5	0x00000000	0.0
6	0x00000000	0.0
7	0x00000000	0.0
8	0x00000000	0.0
9	0x00000000	0.0
10	0x00000000	0.0
11	0x00000000	0.0
12	0x00000000	0.0
13	0x00000000	0.0
14	0x00000000	0.0
15	0x00000000	0.0
16	0x00000000	0.0
17	0x00000000	0.0
18	0x00000000	0.0
19	0x00000000	0.0
20	0x00000000	0.0
21	0x00000000	0.0
22	0x00000000	0.0
23	0x00000000	0.0
24	0x00000000	0.0
25	0x00000000	0.0
26	0x00000000	0.0
27	0x00000000	0.0
28	0x00000000	0.0
29	0x00000000	0.0
30	0x00000000	0.0
31	0x00000000	0.0
32	0x00000000	0.0
33	0x00000000	0.0
34	0x00000000	0.0
35	0x00000000	0.0
36	0x00000000	0.0
37	0x00000000	0.0
38	0x00000000	0.0
39	0x00000000	0.0
40	0x00000000	0.0
41	0x00000000	0.0
42	0x00000000	0.0
43	0x00000000	0.0
44	0x00000000	0.0
45	0x00000000	0.0
46	0x00000000	0.0
47	0x00000000	0.0
48	0x00000000	0.0
49	0x00000000	0.0
50	0x00000000	0.0
51	0x00000000	0.0
52	0x00000000	0.0
53	0x00000000	0.0
54	0x00000000	0.0
55	0x00000000	0.0
56	0x00000000	0.0
57	0x00000000	0.0
58	0x00000000	0.0
59	0x00000000	0.0
60	0x00000000	0.0
61	0x00000000	0.0
62	0x00000000	0.0
63	0x00000000	0.0
64	0x00000000	0.0
65	0x00000000	0.0
66	0x00000000	0.0
67	0x00000000	0.0
68	0x00000000	0.0
69	0x00000000	0.0
70	0x00000000	0.0
71	0x00000000	0.0
72	0x00000000	0.0
73	0x00000000	0.0
74	0x00000000	0.0
75	0x00000000	0.0
76	0x00000000	0.0
77	0x00000000	0.0
78	0x00000000	0.0
79	0x00000000	0.0
80	0x00000000	0.0
81	0x00000000	0.0
82	0x00000000	0.0
83	0x00000000	0.0
84	0x00000000	0.0
85	0x00000000	0.0
86	0x00000000	0.0
87	0x00000000	0.0
88	0x00000000	0.0
89	0x00000000	0.0
90	0x00000000	0.0
91	0x00000000	0.0
92	0x00000000	0.0
93	0x00000000	0.0
94	0x00000000	0.0
95	0x00000000	0.0
96	0x00000000	0.0
97	0x00000000	0.0
98	0x00000000	0.0
99	0x00000000	0.0
100	0x00000000	0.0
101	0x00000000	0.0
102	0x00000000	0.0
103	0x00000000	0.0
104	0x00000000	0.0
105	0x00000000	0.0
106	0x00000000	0.0
107	0x00000000	0.0
108	0x00000000	0.0
109	0x00000000	0.0
110	0x00000000	0.0
111	0x00000000	0.0
112	0x00000000	0.0
113	0x00000000	0.0
114	0x00000000	0.0
115	0x00000000	0.0
116	0x00000000	0.0
117	0x00000000	0.0
118	0x00000000	0.0
119	0x00000000	0.0
120	0x00000000	0.0
121	0x00000000	0.0
122	0x00000000	0.0
123	0x00000000	0.0
124	0x00000000	0.0
125	0x00000000	0.0
126	0x00000000	0.0
127	0x00000000	0.0

Bn2.running_var f4 [128]
0	0x3f800000	1.0
1	0x3f800000	1.0
2	0x3f800000	1.0
3	0x3f800000	1.0
4	0x3f800000	1.0
5	0x3f800000	1.0
6	0x3f800000	1.0
7	0x3f800000	1.0
8	0x3f800000	1.0
9	0x3f800000	1.0
10	0x3f800000	1.0
11	0x3f800000	1.0
12	0x3f800000	1.0
13	0x3f800000	1.0
14	0x3f800000	1.0
15	0x3f800000	1.0
16	0x3f800000	1.0
17	0x3f800000	1.0
18	0x3f800000	1.0
19	0x3f800000	1.0
20	0x3f800000	1.0
21	0x3f800000	1.0
22	0x3f800000	1.0
23	0x3f800000	1.0
24	0x3f800000	1.0
25	0x3f800000	1.0
26	0x3f800000	1.0
27	0x3f800000	1.0
28	0x3f800000	1.0
29	0x3f800000	1.0
30	0x3f800000	1.0
31	0x3f800000	1.0
32	0x3f800000	1.0
33	0x3f800000	1.0
34	0x3f800000	1.0
35	0x3f800000	1.0
36	0x3f800000	1.0
37	0x3f800000	1.0
38	0x3f800000	1.0
39	0x3f800000	1.0
40	0x3f800000	1.0
41	0x3f800000	1.0
42	0x3f800000	1.0
43	0x3f800000	1.0
44	0x3f800000	1.0
45	0x3f800000	1.0
46	0x3f800000	1.0
47	0x3f800000	1.0
48	0x3f800000	1.0
49	0x3f800000	1.0
50	0x3f800000	1.0
51	0x3f800000	1.0
52	0x3f800000	1.0
53	0x3f800000	1.0
54	0x3f800000	1.0
55	0x3f800000	1.0
56	0x3f800000	1.0
57	0x3f800000	1.0
58	0x3f800000	1.0
59	0x3f800000	1.0
60	0x3f800000	1.0
61	0x3f800000	1.0
62	0x3f800000	1.0
63	0x3f800000	1.0
64	0x3f800000	1.0
65	0x3f800000	1.0
66	0x3f800000	1.0
67	0x3f800000	1.0
68	0x3f800000	1.0
69	0x3f800000	1.0
70	0x3f800000	1.0
71	0x3f800000	1.0
72	0x3f800000	1.0
73	0x3f800000	1.0
74	0x3f800000	1.0
75	0x3f800000	1.0
76	0x3f800000	1.0
77	0x3f800000	1.0
78	0x3f800000	1.0
79	0x3f800000	1.0
80	0x3f800000	1.0
81	0x3f800000	1.0
82	0x3f800000	1.0
83	0x3f800000	1.0
84	0x3f800000	1.0
85	0x3f800000	1.0
86	0x3f800000	1.0
87	0x3f800000	1.0
88	0x3f800000	1.0
89	0x3f800000	1.0
90	0x3f800000	1.0
91	0x3f800000	1.0
92	0x3f800000	1.0
93	0x3f800000	1.0
94	0x3f800000	1.0
95	0x3f800000	1.0
96	0x3f800000	1.0
97	0x3f800000	1.0
98	0x3f800000	1.0
99	0x3f800000	1.0
100	0x3f800000	1.0
101	0x3f800000	1.0
102	0x3f800000	1.0
103	0x3f800000	1.0
104	0x3f800000	1.0
105	0x3f800000	1.0
106	0x3f800000	1.0
107	0x3f800000	1.0
108	0x3f800000	1.0
109	0x3f800000	1.0
110	0x3f800000	1.0
111	0x3f800000	1.0
112	0x3f800000	1.0
113	0x3f800000	1.0
114	0x3f800000	1.0
115	0x3f800000	1.0
116	0x3f800000	1.0
117	0x3f800000	1.0
118	0x3f800000	1.0
119	0x3f800000	1.0
120	0x3f800000	1.0
121	0x3f800000	1.0
122	0x3f800000	1.0
123	0x3f800000	1.0
124	0x3f800000	1.0
125	0x3f800000	1.0
126	0x3f800000	1.0
127	0x3f800000	1.0

fc3.weight f4 [5, 128]
0	0xbd2aaf27	-0.041670945
1	0xbe27090e	-0.16312048
2	0x3ddfa0b8	0.109193265
3	0x3d93a3f0	0.07209003
4	0xbd4ccd1f	-0.050000306
5	0xbe03973e	-0.12850663
6	0xb93e4515	-0.00018145547
7	0xbe215918	-0.15756643
8	0xbe5236db	-0.20528738
9	0xb97c97e0	-0.0002408917
10	0x3c8f66ad	0.017505014
11	0x3d4c0749	0.049811635
12	0x3da67f06	0.081296965
13	0xbe35303c	-0.17694181
14	0xbdd7088f	-0.10499679
15	0xbe2906b8	-0.16506469
16	0x3e1b5ca5	0.1517206
17	0x3daf1b93	0.08550181
18	0x3dcc33b0	0.09970796
19	0xbe120973	-0.14261417
20	0xbe2c23a6	-0.16810474
21	0xbd9f2be6	-0.07772045
22	0x3ce89650	0.028391987
23	0xbdd5d95f	-0.10441851
24	0x3d69061b	0.05689059
25	0xbe25018b	-0.1611387
26	0x3b0adfb0	0.0021190457
27	0xbe5a84a9	-0.21339668
28	0x3df49a93	0.11943545
29	0xbd93e29d	-0.072209574
30	0xbe131fb6	-0.14367566
31	0xbdefe78b	-0.11714085
32	0xbd8e13e3	-0.06937387
33	0x3dbd3ac6	0.09239726
34	0x3cae4797	0.021274371
35	0x3c640326	0.013916766
36	0x3d4affd2	0.049560376
37	0xbe602f72	-0.21893099
38	0xba0c57f1	-0.00053536805
39	0xbd058b2c	-0.032603428
40	0x3dd80681	0.105481155
41	0xbd841764	-0.06449774
42	0x3e148d6f	0.14507078
43	0x3d63985a	0.055565216
44	0xbd91d1d2	-0.07120098
45	0xbd95f5c2	-0.07322265
46	0x3da82e57	0.082119636
47	0x3d05b383	0.0326419
48	0xbe23e1e6	-0.16004142
49	0x3d458a69	0.0482277
50	0xbe163cd6	-0.14671645
51	0xbdf445f8	-0.11927408
52	0xbe139387	-0.14411746
53	0x3ddb5f47	0.10711532
54	0xbe1e64aa	-0.15468088
55	0x3da587db	0.08082553
56	0x3c857dad	0.016295278
57	0x3da4b9ce	0.08043252
58	0xbdc98a82	-0.098408714
59	0xbdb1f1f5	-0.08688728
60	0xbe3954c1	-0.18098737
61	0x3dc2fdc0	0.09521055
62	0x3daadac2	0.08342506
63	0xbdf1d22d	-0.11807666
64	0xbe10a003	-0.1412354
65	0xbe290a8a	-0.16507927
66	0x3c01c129	0.007919588
67	0xbd07748b	-0.03307013
68	0x3dd5f632	0.10447349
69	0x3c9fc066	0.019500922
70	0x3d3ac87e	0.04560136
71	0xbe3f6aeb	-0.1869313
72	0xbcb14b30	-0.021642298
73	0xbe4d8600	-0.20070648
74	0x3c192d48	0.009349175
75	0xbd8beec6	-0.06832652
76	0xbe21792e	-0.15768883
77	0x3ddc6bd5	0.10762755
78	0xbdbb66e9	-0.09150488
79	0x3d4e0766	0.050300024
80	0x3d611aa7	0.05495706
81	0x3e08fbfc	0.13377374
82	0x3de5aa49	0.1121412
83	0xbce874c0	-0.028375983
84	0xbc47d4e5	-0.012196754
85	0xbd57acb7	-0.052654948
86	0xbe59c8b0	-0.21267962
87	0xbe0a3155	-0.13495381
88	0x3c8e999b	0.01740723
89	0x3d4bb5c9	0.04973391
90	0xbcfd0d8f	-0.030890254
91	0xbe0457dc	-0.1292414
92	0x3dff10c4	0.1245437
93	0x3e1cc2bc	0.1530866
94	0x3c71208f	0.014717235
95	0xbe23a40a	-0.15980545
96	0x3dc8dddb	0.098079406
97	0xbce878dd	-0.028377945
98	0xbdf3a9a9	-0.118975945
99	0xbda42fa1	-0.08016897
100	0x3a91e1c2	0.0011129903
101	0xbd925ee3	-0.071470045
102	0x3d0c053f	0.03418469
103	0xbd6ec977	-0.0582976
104	0xbaf6bc69	-0.0018824461
105	0xbe1b1238	-0.15143669
106	0x3caf03d2	0.021364126
107	0xbe2b1e42	-0.16710761
108	0xbd103416	-0.035205923
109	0xbe65e7ad	-0.22451659
110	0x3dde01e6	0.10840206
111	0x3dbbddad	0.09173141
112	0xbdca14af	-0.09867226
113	0xbe23e76d	-0.1600625
114	0xbe56a1c7	-0.2096015
115	0xbdd348cb	-0.103166185
116	0xbe3281e9	-0.1743237
117	0x3d954647	0.07288795
118	0x3ddc3c6d	0.10753713
119	0xbe718632	-0.23586348
120	0xbe10cf44	-0.14141566
121	0xbe8b80dc	-0.2724675
122	0x3aa7dcc9	0.0012806888
123	0xbe4183a4	-0.18897873
124	0xbd8287e3	-0.063735746
125	0x3de582ff	0.11206626
126	0x3da1e029	0.07904083
127	0xbe237a9c	-0.1596474
128	0x3d3ca759	0.046058033
129	0xbdee9569	-0.116495915
130	0x3daa7f17	0.08325022
131	0xbd4ffe9d	-0.050779928
132	0xbd001f99	-0.031280134
133	0xbe1c603e	-0.15271088
134	0x3cdaa2a8	0.026688889
135	0xbdced5aa	-0.10099347
136	0xbe3ab31c	-0.18232387
137	0xbd41e5ff	-0.047338482
138	0xbdaea222	-0.08527018
139	0xbdf3e65a	-0.119091704
140	0xbc8bf591	-0.017084869
141	0xbe0cd4ba	-0.13753024
142	0xbd60ad48	-0.054852754
143	0xbe0f213a	-0.13977519
144	0x3dbeff56	0.09326045
145	0x3d8d15a0	0.0688889
146	0x3c5f8ca1	0.013644368
147	0x3cdd4e34	0.02701483
148	0xbdd7cc29	-0.10536987
149	0xbce2abec	-0.02766987
150	0x3c3ab1c9	0.011394926
151	0xbdc65f78	-0.09686178
152	0x3cd19cdd	0.025587494
153	0xbdfae20a	-0.12250145
154	0x3d0b0698	0.033941835
155	0x3cf0097a	0.029301394
156	0x3dc86190	0.097842336
157	0xbe0d706f	-0.13812421
158	0x3c4fcae3	0.012682649
159	0xbda4f9be	-0.08055447
160	0xbe18a1b7	-0.1490544
161	0xbd7f94fc	-0.062397942
162	0x3d83ca49	0.06435067
163	0x3dffce87	0.12490564
164	0x3d51fe61	0.051267985
165	0xbb86e951	-0.004117169
166	0xbd786c0a	-0.06064991
167	0x3cf42cd2	0.029806528
168	0x3d7b0d07	0.06129172
169	0x3d311f0d	0.043242503
170	0x3cba13de	0.022714552
171	0x3dda3964	0.10655478
172	0xbc8b7129	-0.017021732
173	0x3d3dd589	0.04634622
174	0xbd77e7ad	-0.060523678
175	0xbe112e74	-0.14177877
176	0xbe4e7606	-0.2016221
177	0x3ccfd68f	0.025370864
178	0xbb90863a	-0.0044105323
179	0xbcc7ff9b	-0.024413874
180	0xbdc910ee	-0.09817682
181	0x3cf66e50	0.030081898
182	0xbda8e2a7	-0.082463555
183	0x3d35f1af	0.04441994
184	0xbcaee8d0	-0.021351248
185	0x3d5d2567	0.053990748
186	0x3bdc534e	0.006723798
187	0xbda6b43b	-0.08139845
188	0x3d1557ec	0.036460802
189	0x3dc81550	0.0976969
190	0x3cd0f460	0.025507152
191	0xbdd0c334	-0.10193482
192	0x3c875514	0.01652006
193	0xbdac9fe1	-0.08428932
194	0xbdfad5eb	-0.12247833
195	0xbcbc7677	-0.023005707
196	0x3db90752	0.09034599
197	0x3bbe82a1	0.005813912
198	0x3d4c825a	0.049929
199	0xbe10bee6	-0.14135322
200	0xbdb4e8fe	-0.08833502
201	0xbd135949	-0.03597382
202	0x3d029c07	0.03188708
203	0xbc2f5c1f	-0.010703116
204	0xbd086b80	-0.033305645
205	0x3d202886	0.039101146
206	0xba7c8712	-0.0009633164
207	0xbd38947f	-0.045063492
208	0x3c2f5846	0.010702198
209	0x3d33c389	0.04388765
210	0x3c99ced5	0.018775383
211	0xbcf940b3	-0.030426359
212	0x3d697c6d	0.057003427
213	0x3db6603a	0.089050725
214	0xbe02cb31	-0.12772824
215	0xbbe265d7	-0.006909113
216	0x3e098dbc	0.13432974
217	0x3cd2bb9b	0.025724223
218	0x3d778c4d	0.060436536
219	0x3d1ccb28	0.038279682
220	0x3dd97076	0.10617153
221	0x3d0e74e3	0.03477944
222	0xbdf7d2e0	-0.12100768
223	0xbe108c4c	-0.14116019
224	0x3df7e4d2	0.12104191
225	0x3d77879e	0.06043207
226	0xbd34d2ee	-0.04414647
227	0xbc1bed54	-0.009517033
228	0xbc866a3e	-0.016408082
229	0x3ddc0896	0.10743825
230	0xbd6e4eaf	-0.058180507
231	0x3d70e315	0.058810312
232	0x3d43ea95	0.047831137
233	0xbe0c08d8	-0.13675249
234	0x3d85609e	0.06512569
235	0x3db1457f	0.086558335
236	0x3d6059a5	0.05477299
237	0xbdb6b8ec	-0.0892199
238	0xbc272bd1	-0.010203318
239	0xbcd6784d	-0.02618041
240	0xbdf47551	-0.11936439
241	0xbd6c2f7c	-0.057662472
242	0xbde7d70b	-0.11320313
243	0xbd24cdbd	-0.04023527
244	0xbd718662	-0.058966048
245	0xbb6a5f89	-0.003576251
246	0x3d703788	0.05864671
247	0xbe4e007d	-0.20117374
248	0xbdf56819	-0.11982746
249	0xbd765c5c	-0.060146675
250	0x3dbcb99f	0.09215092
251	0xbc887aa7	-0.016660048
252	0x3a140b63	0.00056474487
253	0x3cfb1e78	0.030654177
254	0x3d6e0c0b	0.058116954
255	0xbd7652b8	-0.06013748

fc3.bias f4 [5]
0	0xbd53d0b1	-0.051712696
1	0x3d7106fa	0.058844544
2	0x3cb4952b	0.022043785
3	0xbd2fd748	-0.042929918
4	0x3ce2bb81	0.0276773
