basline_model/Baseline_CNN.pt (torch, 26767 bytes, 14 tensors)

conv1.weight f4 [32, 1, 3]
0	0x3ebf6f90	0.37389803
1	0xbe52883d	-0.20559783
2	0xbe0348f5	-0.128208
3	0x3dce8fc0	0.10086012
4	0xbf07949c	-0.52961135
5	0x3f006c60	0.5016537
6	0xbe118a75	-0.14212973
7	0x3ea5b711	0.3236623
8	0x3d738d30	0.05946082
9	0xbd545ff0	-0.051849306
10	0x3e8b8ab2	0.27254254
11	0xbd1d1dce	-0.038358502
12	0x3e7d521b	0.24738352
13	0xbe7fb92f	-0.24972986
14	0x3ca295b6	0.019846778
15	0x3cca2880	0.024677515
16	0x3e549ece	0.20763704
17	0xbd2eff05	-0.042723674
18	0x3ea95681	0.3307381
19	0x3e95a08b	0.29224047
20	0xbe8eea2a	-0.27913028
21	0xbe94ef95	-0.29089037
22	0xbe7250bf	-0.23663615
23	0xbe87655b	-0.26444516
24	0xbe6f3eb5	-0.23363765
25	0xbd062349	-0.032748494
26	0x3ead662f	0.33867022
27	0x3e91f154	0.2850443
28	0xbf106f49	-0.5641981
29	0x3ecb63a4	0.39724457
30	0x3d58f58d	0.05296855
31	0x3f03c8ec	0.5147846
32	0x3ee9d0ed	0.4566721
33	0xbeaeecee	-0.34165138
34	0xbf41c714	-0.75694394
35	0xbe5a9093	-0.21344213
36	0x3f09a036	0.5376009
37	0xbc17b2f8	-0.009258978
38	0x3e892b13	0.26790676
39	0xbdb4becb	-0.08825453
40	0x3f0b1a3d	0.5433691
41	0xbec1cc2c	-0.37851083
42	0x3ee8b270	0.45448637
43	0x3dd845df	0.10560202
44	0xbe93ff27	-0.28905603
45	0x3e8227c6	0.2542097
46	0xbee0008f	-0.43750426
47	0x3d612369	0.05496541
48	0xbe2e6553	-0.1703084
49	0x3d7a9139	0.06117365
50	0xbf16a117	-0.58839554
51	0xbebcfad9	-0.36910132
52	0x3e883e22	0.26609904
53	0xbd5a6123	-0.053315293
54	0x3f1a77e4	0.6033919
55	0x3ee93626	0.45549124
56	0x3b40da88	0.002942713
57	0xbed43902	-0.41449744
58	0x3e85ee19	0.26158217
59	0x3e960d78	0.2930715
60	0xbec76725	-0.3894588
61	0x3ed9681a	0.42462236
62	0x3ea1213f	0.31470677
63	0x3f1cf43c	0.6131017
64	0xbe69ec55	-0.2284406
65	0xbca2239c	-0.01979237
66	0x3d12ac08	0.035808593
67	0x3e2d42ce	0.16920015
68	0xbeddf9fb	-0.43354782
69	0xbe9ec74a	-0.3101142
70	0x3ea8c2f0	0.32961226
71	0xbe8b4aec	-0.27205598
72	0x3e928058	0.28613544
73	0x3d907656	0.07053821
74	0x3e663893	0.22482519
75	0x3e00502b	0.12530582
76	0x3e1969c5	0.14981754
77	0x3eb3e729	0.351373
78	0xbeeac207	-0.45851156
79	0x3ea05b21	0.31319526
80	0xbf002628	-0.5005822
81	0xbec3df4c	-0.382563
82	0xbc65761b	-0.014005209
83	0xbe6d9965	-0.23203047
84	0x3eb63d85	0.3559381
85	0xbe8a6ba9	-0.27035263
86	0xbf0db827	-0.5535912
87	0x3e9db4f4	0.3080212
88	0xbe455856	-0.19271979
89	0x3ecf9ac1	0.40547755
90	0xbc969727	-0.018382622
91	0xbf0865cd	-0.53280336
92	0x3dfd5523	0.12369754
93	0x3e2e1ad3	0.1700242
94	0xbec5b6cc	-0.38616025
95	0xbe92b92e	-0.28656906

conv1.bias f4 [32]
0	0x3e499625	0.19686182
1	0x3dd3cbef	0.103416316
2	0xbe7b7bbe	-0.24558923
3	0xbe32f7c1	-0.17477323
4	0x3f075e76	0.5287851
5	0xbddac596	-0.10682218
6	0x3ea6a8a2	0.32550532
7	0x3e7ffe82	0.24999431
8	0xbebf1482	-0.37320334
9	0xbefb63ca	-0.4909957
10	0x3f0ddf87	0.554192
11	0x3cf6f6ed	0.03014704
12	0x3eca9fa8	0.39574933
13	0x3df508b0	0.11964548
14	0x3e3e254e	0.18568918
15	0x3edccdb3	0.43125686
16	0x3f0c25d0	0.547452
17	0xbec4281e	-0.38311857
18	0x3d93d606	0.07218556
19	0x3edc989d	0.43085185
20	0x3ed6253a	0.41825277
21	0x3eb7a3e2	0.3586722
22	0xbed5ef04	-0.41783917
23	0xbed4dd7d	-0.41575232
24	0xbeb2c595	-0.34916368
25	0x3d948b15	0.0725309
26	0x3f134f09	0.57542473
27	0xbebab9b9	-0.3646982
28	0x3e9d8579	0.30765894
29	0xbea39ceb	-0.31955656
30	0xbf0af728	-0.5428338
31	0xbdfb4f68	-0.12271005

Bn1.weight f4 [32]
0	0x3f75e1c9	0.96047646
1	0x3f8bdbf0	1.0926495
2	0x3f72d082	0.9484941
3	0x3f6ef58b	0.9334342
4	0x3f6cb224	0.9245932
5	0x3f831154	1.0239663
6	0x3f820945	1.0159079
7	0x3f64845a	0.8926445
8	0x3f8ac120	1.0840187
9	0x3f7161b0	0.94289684
10	0x3f6c9934	0.9242127
11	0x3f7ee363	0.99565715
12	0x3f769fce	0.9633759
13	0x3f88e3ed	1.0694557
14	0x3f7b9dc2	0.98287594
15	0x3f80c21d	1.0059239
16	0x3f8a88d5	1.0823008
17	0x3f81b2a4	1.0132642
18	0x3f7380a5	0.9511817
19	0x3f816f67	1.0112122
20	0x3f770a9b	0.9650056
21	0x3f6f31f7	0.93435615
22	0x3f6504ef	0.89460653
23	0x3f812576	1.0089557
24	0x3f80fa60	1.0076408
25	0x3f733bc7	0.9501309
26	0x3f7e127c	0.99246955
27	0x3f6dab72	0.9283973
28	0x3f7303b9	0.94927555
29	0x3f832754	1.0246377
30	0x3f8d634a	1.1045926
31	0x3f7b0231	0.9805022

Bn1.bias f4 [32]
0	0x3c99df95	0.01878337
1	0x3e8b70e5	0.2723457
2	0xbd0156a4	-0.031576768
3	0xbdcf1d7a	-0.10113044
4	0x3e94628c	0.28981435
5	0x3d0c9a9f	0.034327146
6	0x3dcb694e	0.09932195
7	0xbc2ad09c	-0.010425713
8	0xbde99020	-0.11404443
9	0x3c1f2743	0.009713951
10	0x3dc8cffc	0.09805295
11	0x3e8221fe	0.2541656
12	0xbda4efc7	-0.080535464
13	0x3e71603b	0.23571865
14	0xbdc84db2	-0.09780444
15	0x3defee7b	0.117154084
16	0x3e4a203a	0.19738856
17	0x3e388df1	0.18022896
18	0x3d87b54f	0.06626379
19	0xbe94fea5	-0.29100528
20	0x3eac685f	0.3367338
21	0x3e393388	0.18086064
22	0x3eabf621	0.3358622
23	0x3cb37d1c	0.021910243
24	0xbeb457b3	-0.3522316
25	0x3e3706f1	0.17873742
26	0xbe971069	-0.29504707
27	0x3e1422fa	0.14466467
28	0x3e59b8ef	0.21261953
29	0x3c9c9442	0.019113664
30	0x3b36a009	0.0027866384
31	0xbe975f90	-0.29565096

Bn1.running_mean f4 [32]
0	0x3e4bde23	0.19908957
1	0x3dcf711b	0.10128995
2	0xbe7c02ba	-0.24610415
3	0xbe32b0c6	-0.17450246
4	0x3f0799fe	0.5296935
5	0xbdd9857e	-0.10621165
6	0x3ea85a48	0.3288138
7	0x3e7f00e3	0.24902682
8	0xbec069d8	-0.37580752
9	0xbefbc8ff	-0.49176785
10	0x3f0db5ac	0.55355334
11	0x3ce4b88d	0.027920032
12	0x3ecb9e53	0.3976923
13	0x3df8a0c3	0.12140038
14	0x3e41fb15	0.18943436
15	0x3edd134c	0.43178785
16	0x3f0c7ee5	0.54881126
17	0xbec4e38e	-0.3845486
18	0x3d9c07ac	0.07618651
19	0x3edb1170	0.4278674
20	0x3ed4c60c	0.41557348
21	0x3eb93aa6	0.36177558
22	0xbed4dea6	-0.41576117
23	0xbed4f623	-0.41594037
24	0xbeb25797	-0.3483245
25	0x3d93ba14	0.07213226
26	0x3f1343b3	0.57525176
27	0xbebb5e8e	-0.36595577
28	0x3e9f609f	0.31128404
29	0xbea3ac10	-0.3196721
30	0xbf0b5102	-0.54420483
31	0xbdf863b1	-0.121283896

Bn1.running_var f4 [32]
0	0x3e045ac4	0.1292525
1	0x3ec372aa	0.3817342
2	0x3da8e040	0.08245897
3	0x3d539014	0.051651075
4	0x3db065d3	0.086131714
5	0x3ce69df9	0.0281515
6	0x3e278a3b	0.16361324
7	0x3dcad275	0.09903423
8	0x3dd7539c	0.10513994
9	0x3eccf925	0.40033832
10	0x3e73105d	0.23736711
11	0x3eb9b9e4	0.36274636
12	0x3e57af2e	0.2106292
13	0x3ea053e9	0.31314018
14	0x3e3944a3	0.18092589
15	0x3e37ff44	0.1796847
16	0x3e6caa80	0.23111916
17	0x3e147bf9	0.14500417
18	0x3e94ef8d	0.29089013
19	0x3e51b91c	0.2048077
20	0x3e895539	0.26822832
21	0x3e8f5194	0.27991927
22	0x3e129a21	0.14316608
23	0x3e4b6aaa	0.19864908
24	0x3d954a98	0.07289618
25	0x3da7f549	0.08201081
26	0x3ec28ba5	0.37997165
27	0x3dea37f1	0.11436451
28	0x3e9987b5	0.2998635
29	0x3e4a2473	0.19740467
30	0x3e435623	0.19075827
31	0x3e1955c9	0.1497413

conv2.weight f4 [32, 32, 3]
0	0x3e130d39	0.14360513
1	0x3d1ec29e	0.03875982
2	0xbdcc226f	-0.09967505
3	0x3c6020a5	0.013679658
4	0x3e5828b2	0.21109274
5	0x3da451c8	0.08023411
6	0x3d861200	0.06546402
7	0x3dc07ba2	0.09398581
8	0x3d454954	0.048165634
9	0xbb94c66c	-0.0045402553
10	0xbc1271f1	-0.008938299
11	0xbdd5d213	-0.10440459
12	0x3cf2947a	0.029611815
13	0xbc782cc7	-0.0151473945
14	0xbdbd9c6c	-0.09258351
15	0x3bc6edff	0.006070852
16	0x3deabc27	0.114616685
17	0xbd33beca	-0.043883123
18	0x3d9fafa0	0.0779717
19	0x3db75ac0	0.08952856
20	0x3dc64b45	0.09682325
21	0x3cf4cb7f	0.02988219
22	0xbe4c5700	-0.19955063
23	0x3c9b3ade	0.018948968
24	0xbd807d55	-0.06273905
25	0xbd20e963	-0.039285075
26	0xbda01495	-0.07816426
27	0xbd063a98	-0.032770723
28	0x3c738963	0.0148642985
29	0xbd590208	-0.052980453
30	0x3cfa0093	0.030517852
31	0xbda01711	-0.078168996
32	0xbe68dcc1	-0.22740461
33	0x3dd03a2f	0.10167348
34	0x3cbbb91f	0.022915421
35	0x3d9937a5	0.074813165
36	0xbe224578	-0.15846813
37	0xbe39912c	-0.18121785
38	0xba0090bb	-0.0004904379
39	0x3bd2032a	0.0064090686
40	0xbbc47241	-0.0059950654
41	0xbdf7e8c4	-0.121049434
42	0x3da1bb7d	0.07897089
43	0x3d9b80b1	0.07592905
44	0x3c611f4c	0.013740372
45	0x3d90c29a	0.07068367
46	0x3e0a4e4d	0.13506432
47	0x3dcad06c	0.099030346
48	0x3b6ebe11	0.0036429206
49	0xbc82549b	-0.015909484
50	0xbe063480	-0.13105965
51	0x3db1376e	0.086531505
52	0xbd8364df	-0.06415724
53	0xbb945afd	-0.004527448
54	0x3cdb2b4c	0.026754044
55	0xbdde7609	-0.10862357
56	0xbd320950	-0.043465912
57	0x3dbb0086	0.09130959
58	0xbe0dc189	-0.13843359
59	0xbdfc481a	-0.1231844
60	0xbcb2520e	-0.021767642
61	0xbdd2182f	-0.10258519
62	0x3db0093d	0.08595512
63	0x3d449bc1	0.0480001
64	0xbdf9d903	-0.12199595
65	0xbb35204c	-0.0027637659
66	0x3d31cd9d	0.04340898
67	0x3bfb2102	0.007663847
68	0x3ce3d443	0.027811175
69	0x3d72da48	0.0592902
70	0x3dc5e0c5	0.09662012
71	0xbdc9b74b	-0.098494135
72	0xbe24d805	-0.1609803
73	0xbe89dc1a	-0.26925737
74	0x3d24e3a6	0.040256165
75	0xbe2c224e	-0.16809961
76	0xbd60ae7f	-0.054853912
77	0xbe24b5dd	-0.16085
78	0xbdc69127	-0.09695654
79	0x3d173440	0.036915064
80	0x3b4db0a7	0.003138581
81	0x3babb74e	0.0052403575
82	0xbe0384ac	-0.12843579
83	0x3d6456ae	0.055746727
84	0xbd8384f6	-0.06421845
85	0x3de3240d	0.110908605
86	0x3d0f6fb3	0.035018634
87	0xbd4d0118	-0.05004987
88	0x3d5dd96c	0.054162428
89	0xbd8d78db	-0.06907817
90	0xbd4c95e9	-0.049947653
91	0x3e4b9cc3	0.19884019
92	0xbdb0c471	-0.08631218
93	0x3dd576f9	0.10423083
94	0xbda48f65	-0.08035163
95	0xbdd78898	-0.105241
96	0x3d89a39b	0.067206584
97	0xbd42bffa	-0.047546364
98	0xbd51636c	-0.051120207
99	0x3e0fef18	0.14056051
100	0x3db5669d	0.088574626
101	0x3dbd19ec	0.0923346
102	0xbde11386	-0.10990052
103	0xbd9c2a74	-0.07625285
104	0x3d253516	0.04033383
105	0xbda2163e	-0.079143986
106	0xbd3edc16	-0.04659661
107	0xbd55b580	-0.052175045
108	0xbd8d29d5	-0.068927445
109	0x3d976691	0.0739261
110	0x3d63f2de	0.055651538
111	0xbdfb1bdc	-0.12261173
112	0xbdd53e53	-0.10412278
113	0xbd7145c7	-0.058904435
114	0x3d8b714e	0.068087205
115	0x3d9410c2	0.07229759
116	0x3cc7d778	0.024394736
117	0xbd4460c6	-0.047943853
118	0xbe0c5f48	-0.13708222
119	0xbd30049d	-0.04297315
120	0xbdb29606	-0.08720021
121	0x3ddff4a3	0.109353326
122	0x3e35c32b	0.17750232
123	0x3a103419	0.0005500927
124	0xbcee3426	-0.0290776
125	0x3d519b64	0.051173583
126	0xbad78c2a	-0.001644497
127	0xbc6bf3ef	-0.01440142
128	0xbcfd66e4	-0.030932851
129	0x3db8eaf7	0.09029191
130	0x3d210a11	0.03931624
131	0x3b9d930d	0.0048087896
132	0x3df8415d	0.12121842
133	0xbb8d4f8a	-0.0043124603
134	0xbd811e96	-0.06304662
135	0x3c3fdb97	0.011710069
136	0x3c19822d	0.009369415
137	0xbd72809e	-0.05920469
138	0x3da1d7d9	0.07902498
139	0xbc38c703	-0.011277917
140	0x3e32196e	0.17392513
141	0xbd18dc40	-0.03731942
142	0x3c40bbb7	0.011763505
143	0x3c938aeb	0.018010577
144	0xbd95e7a2	-0.07319571
145	0x3e41f4bc	0.18941015
146	0xbdbcd364	-0.09220007
147	0xbe313f9d	-0.17309423
148	0xbe5e7de4	-0.21727711
149	0x3d3a2e00	0.045454025
150	0x3d7bcb26	0.061473034
151	0x3d079eb1	0.033110324
152	0xbb920fbf	-0.0044574435
153	0xbd7e9151	-0.062150303
154	0x3cc0f49c	0.023554139
155	0x3bd560db	0.00651179
156	0xbdf54f7f	-0.11978053
157	0xbdaa0aeb	-0.08302864
158	0xbd9ad3d6	-0.07559936
159	0x3e14c4de	0.14528224
160	0xbc016c8a	-0.007899413
161	0x3b5e94df	0.0033963246
162	0xbd9c1512	-0.07621206
163	0x3cf598e6	0.029980134
164	0x3d14fa1a	0.036371328
165	0xbd8fc75b	-0.07020446
166	0xbdd852c3	-0.105626605
167	0xbc56eaa0	-0.013117462
168	0xbcf2cb0a	-0.029637832
169	0xbcbfb5bd	-0.02340209
170	0xbe24b104	-0.16083151
171	0xbdcaa8df	-0.09895491
172	0x3d38af25	0.045088906
173	0xbe2e7bd5	-0.17039426
174	0xbd86cf52	-0.06582512
175	0xbe0b9f04	-0.13634878
176	0x3d5a6632	0.053320117
177	0xbdd94add	-0.10609982
178	0xbe62dc00	-0.22154236
179	0x3e294782	0.16531184
180	0x3c31a043	0.010841432
181	0x3e4ced40	0.20012379
182	0x3bc8133e	0.0061058095
183	0x3b4fe51d	0.0031722256
184	0xbdfc2d42	-0.1231332
185	0xbd61aa68	-0.055094153
186	0x3de9e185	0.114199676
187	0xbde45203	-0.11148455
188	0xbdb3a376	-0.08771412
189	0x3cb058a4	0.021526642
190	0x3df179e8	0.1179083
191	0x3d70292a	0.058633007
192	0xbd1ecdb4	-0.038770393
193	0xbdff4f1f	-0.12466263
194	0x3c6a27ba	0.014291698
195	0xbdace833	-0.08442726
196	0x3da63ee0	0.08117461
197	0x3c1c857a	0.009553308
198	0xbdb72db3	-0.08944263
199	0x3d5bb963	0.053643595
200	0xbdc1b3fd	-0.09458158
201	0xbd0b4fca	-0.03401164
202	0x3d72a475	0.05923887
203	0xbc93d21b	-0.018044522
204	0x3dabffd1	0.083984025
205	0xbe51ade1	-0.20476486
206	0x3cc28f0f	0.023749856
207	0xbd1e11d7	-0.038591232
208	0xbd4ed8eb	-0.050499838
209	0xbdd92ffc	-0.106048554
210	0xbd2d0bb2	-0.04224748
211	0x3d66fb59	0.056392048
212	0xbdc3a425	-0.095527925
213	0xbdbed866	-0.093186185
214	0xbd183cba	-0.03716729
215	0xbd11a9ec	-0.03556244
216	0xbdaf35e7	-0.08555203
217	0x3d677982	0.056512363
218	0xbe194802	-0.14968875
219	0xbd84d41d	-0.0648577
220	0xbdc42d45	-0.09578947
221	0xbc7bb785	-0.015363579
222	0xbd0cb9f5	-0.03435703
223	0x3e00f470	0.12593246
224	0xbe37611b	-0.17908137
225	0xbdd67d50	-0.1047312
226	0x3cf7581d	0.030193383
227	0xbc0a9ba9	-0.008459964
228	0x3dbc2147	0.09186035
229	0x3ccf8d54	0.025335945
230	0x3dec9c71	0.11553276
231	0xbd8a09ce	-0.06740151
232	0x3c21bbd7	0.009871445
233	0xbe00c7de	-0.12576243
234	0xbb91cc6f	-0.004449419
235	0x3cfd14c2	0.030893687
236	0x3c81565e	0.015788253
237	0x3cabfafc	0.020993702
238	0xbe2bf8ab	-0.16794078
239	0xbbc06db7	-0.005872454
240	0xbbc66a26	-0.0060551343
241	0x3d11d7f6	0.035606347
242	0xbe888ff5	-0.2667233
243	0x3bdd8554	0.0067602787
244	0x3d0fc351	0.035098378
245	0x3cc4e4c4	0.024034865
246	0xbd1bd76d	-0.038047243
247	0x3dc625ea	0.096752
248	0xbd9d02ce	-0.076665506
249	0x3d23356f	0.03984588
250	0x3de1181e	0.10990928
251	0x3d47d0f0	0.048783243
252	0xbd67c159	-0.056580875
253	0xbd4648ce	-0.048409276
254	0x3db3cba3	0.08779075
255	0xbd19362c	-0.037405178

conv2.bias f4 [32]
0	0xbd44f50e	-0.048085265
1	0x3d9b50e1	0.07583786
2	0x3d9e5c99	0.07732505
3	0xbca030b7	-0.019554479
4	0xbd78e1e8	-0.060762316
5	0x3b3fcda3	0.0029266856
6	0x3da3593c	0.079760045
7	0x3db6235b	0.08893462
8	0xbdc16f32	-0.09445037
9	0x3dbbf5d1	0.09177745
10	0xbd872074	-0.06597987
11	0x3c9a69f2	0.018849347
12	0xbd39faf2	-0.045405336
13	0xbd6b906e	-0.057510786
14	0xbc8237c6	-0.015895735
15	0x3b5e5b81	0.0033929052
16	0xbda9a417	-0.08283251
17	0xbd1115c2	-0.03542114
18	0x3d9671d6	0.07345931
19	0xbb8aad45	-0.004232081
20	0xbd587b82	-0.05285216
21	0x3db30fdd	0.0874326
22	0xbdc370a4	-0.09542969
23	0xbcda3774	-0.02663777
24	0x3dad057c	0.08448312
25	0x3c247612	0.010037916
26	0xbd177968	-0.036981016
27	0xbd620c0a	-0.055187263
28	0xbcd1881b	-0.025577595
29	0xbd676065	-0.056488413
30	0xbbe5fbb1	-0.0070185293
31	0x3dc2ff92	0.095214024

Bn2.weight f4 [32]
0	0x3f887862	1.0661738
1	0x3f6defef	0.92944235
2	0x3f829bf0	1.0203838
3	0x3fa5a30b	1.2940382
4	0x3f86755d	1.0504566
5	0x3f7427ca	0.95373213
6	0x3f89e1f2	1.0772078
7	0x3f946378	1.1592855
8	0x3f8222c5	1.0166861
9	0x3f9b1513	1.2115806
10	0x3f89989d	1.0749699
11	0x3f8b05af	1.086111
12	0x3f8388d2	1.0276129
13	0x3f890ba5	1.0706679
14	0x3f75069e	0.9571322
15	0x3f7a3643	0.97739047
16	0x3f7b7f57	0.9824118
17	0x3f8f09f0	1.1174908
18	0x3f7fdd3b	0.99946946
19	0x3f944987	1.1584939
20	0x3f8901e5	1.0703703
21	0x3f81a8f1	1.0129682
22	0x3f8ae6c5	1.0851675
23	0x3f94e106	1.1631172
24	0x3f833384	1.0250096
25	0x3f9ba46a	1.215955
26	0x3f8e0bfb	1.1097406
27	0x3f8a10cc	1.0786376
28	0x3f8dbc9c	1.1073184
29	0x3f857eac	1.0429282
30	0x3f88b8c0	1.0681381
31	0x3f8b31b2	1.0874541

Bn2.bias f4 [32]
0	0xbe1161a3	-0.14197402
1	0xbe66544d	-0.22493096
2	0xbca89974	-0.020580985
3	0xbe057af0	-0.13035178
4	0xbe5d45d1	-0.21608664
5	0xbec28d5a	-0.37998468
6	0xbdee574b	-0.116377436
7	0xbd858071	-0.06518639
8	0xbe2aeaa3	-0.1669107
9	0xbe80ed2e	-0.25180954
10	0xbe6b98a2	-0.23007444
11	0xbe0d77d8	-0.13815248
12	0xbe41aeb7	-0.18914305
13	0xbd8da5bd	-0.06916378
14	0xbe2289cf	-0.15872882
15	0xbd9a077a	-0.07520957
16	0xbe8807aa	-0.26568347
17	0xbdb8fe12	-0.09032835
18	0xbe378df9	-0.17925252
19	0xbdb6bcbb	-0.08922716
20	0xbdb7c063	-0.08972242
21	0xbe46f483	-0.19429211
22	0xbe0c0892	-0.13675144
23	0xbe52f873	-0.20602588
24	0xbe3561f5	-0.17713149
25	0xbe3086f9	-0.17238988
26	0xbdebddac	-0.1151689
27	0xbdee6243	-0.11639836
28	0xbd3daa81	-0.046305183
29	0xbe8776d1	-0.26457837
30	0xbe21775f	-0.15768193
31	0xbdd6c3fd	-0.104866005

Bn2.running_mean f4 [32]
0	0xbe93eb53	-0.28890476
1	0xbe85ce11	-0.2613378
2	0xbf4867e7	-0.7828354
3	0xbf03ed93	-0.51534384
4	0xbf6bbaf5	-0.9208215
5	0xbe424c0d	-0.18974324
6	0xbd10e7ab	-0.035377186
7	0xbe4c0ff8	-0.19927967
8	0x3eae80c2	0.3408261
9	0x3e4104bc	0.18849462
10	0xbe8adca3	-0.27121457
11	0xbe1e814c	-0.1547901
12	0xbf836125	-1.0264021
13	0xbf561675	-0.83628017
14	0xbfaa105e	-1.3286245
15	0xbc3e5d1c	-0.011618879
16	0xbf59a561	-0.85017973
17	0xbec87e07	-0.3915865
18	0xbed02949	-0.40656498
19	0xbe4e8dac	-0.20171231
20	0xbf36b4f1	-0.71369845
21	0xbbb6e764	-0.005581783
22	0xbd3775a3	-0.04478992
23	0x3e0a90e0	0.13531828
24	0xbe9af7cb	-0.30267176
25	0xbe5fd735	-0.21859439
26	0xbe40b074	-0.18817312
27	0xbf751fba	-0.95751536
28	0xbf44647d	-0.7671583
29	0xbf83f1ff	-1.0308226
30	0xbf30b961	-0.69032866
31	0xbf24efe9	-0.64428574

Bn2.running_var f4 [32]
0	0x3e1e6ba4	0.15470749
1	0x3e46326c	0.19355172
2	0x3e8b0a43	0.27156267
3	0x3e8510be	0.25989336
4	0x3ea8e3bd	0.3298625
5	0x3e6e8825	0.23294123
6	0x3f025b3e	0.50920475
7	0x3e9ab9bc	0.3021983
8	0x3e4ed87a	0.20199767
9	0x3ebbd23f	0.36683843
10	0x3e4abff2	0.19799784
11	0x3e6af9ed	0.22946902
12	0x3ec7119f	0.3888063
13	0x3e415ee6	0.18883857
14	0x3efa2042	0.48852736
15	0x3ebc3a60	0.36763287
16	0x3e90973a	0.28240377
17	0x3e878626	0.26469535
18	0x3e94fb61	0.29098037
19	0x3e6ee0b1	0.233279
20	0x3e90acaa	0.28256732
21	0x3e30b584	0.17256743
22	0x3e9d58cd	0.30731812
23	0x3ee73eab	0.45165
24	0x3e8d81f4	0.2763821
25	0x3e719112	0.23590496
26	0x3ed269d2	0.4109636
27	0x3eeaf823	0.45892438
28	0x3eba516a	0.3639024
29	0x3ea47e25	0.3212749
30	0x3ebd4a94	0.3697096
31	0x3f13961c	0.57650924

fc1.weight f4 [5, 384]
0	0x3e6bdb75	0.23032935
1	0xbc041e26	-0.008063829
2	0x3df71967	0.12065392
3	0xbdad0061	-0.08447338
4	0x3c1dde93	0.009635585
5	0xbce0e513	-0.027452981
6	0x3cee129a	0.029061604
7	0xbd54be58	-0.05193934
8	0xbd8dee9d	-0.069302775
9	0xbd148ea8	-0.03626886
10	0x3da25992	0.079272404
11	0x3e5412a3	0.20710234
12	0x3d1863a1	0.03720439
13	0x3dcf7694	0.10130039
14	0xbd9664e2	-0.073434606
15	0x3c5ae470	0.013360128
16	0xbeb4036c	-0.3515886
17	0x3bfa8398	0.0076450817
18	0xbe88c65a	-0.2671383
19	0x3e37f7cd	0.17965622
20	0x3c9ad1d0	0.018898875
21	0x3d2faaa2	0.042887338
22	0x3b24be4a	0.0025137835
23	0x3e48ba66	0.19602355
24	0xbe5e4ef1	-0.21709801
25	0x3e8c82f4	0.2744366
26	0x3d9dc115	0.07702843
27	0xbe3216ce	-0.17391512
28	0x3e6081ba	0.21924487
29	0x3d14c967	0.036324885
30	0x3e29442c	0.16529912
31	0xbca57a13	-0.020199811
32	0x3da842b3	0.08215847
33	0xbaa68cc6	-0.0012706749
34	0xbe01a03d	-0.12658782
35	0xbe84f789	-0.25970104
36	0x3c879657	0.01655118
37	0xbc04cccb	-0.008105467
38	0x3e22ba0d	0.15891285
39	0x3e575d69	0.21031727
40	0xbe85bb87	-0.26119635
41	0xbe62772a	-0.2211577
42	0x3db62072	0.08892907
43	0x3eabd6ed	0.33562413
44	0xbccbaa59	-0.024861502
45	0x3ea3a79d	0.31963816
46	0x3d8ba13f	0.068178646
47	0xbd7bdb33	-0.06148834
48	0xbd93eb17	-0.07222574
49	0x3e43fe0b	0.19139878
50	0x3d0b8a61	0.034067515
51	0xbea4ecd9	-0.3221195
52	0x3d5fafd7	0.054611053
53	0x3d5dc383	0.054141533
54	0x3e0f69d4	0.14005214
55	0xbea32998	-0.3186767
56	0x3b011eaa	0.0019702115
57	0x3ddcb833	0.10777321
58	0xbdf8cbf8	-0.12148279
59	0x3d9584d2	0.07300724
60	0x3d99fe7b	0.075192414
61	0xbe1b9f03	-0.15197377
62	0xbd22ed68	-0.03977719
63	0x3b3778fd	0.0027995699
64	0xbe349cde	-0.17637965
65	0xbba7617d	-0.005108057
66	0xbe11d87c	-0.14242738
67	0xbd2c5763	-0.042075526
68	0xbe32db24	-0.17466408
69	0x3dd08ef2	0.10183515
70	0x3d0f3959	0.0349668
71	0x3e8bc042	0.2729512
72	0x3d77ef45	0.06053092
73	0xbc3faa5b	-0.011698331
74	0xbd3cdfb3	-0.046111774
75	0x3cf413ff	0.029794691
76	0xbd871e28	-0.06597549
77	0xbd828463	-0.06372907
78	0x3dcdb790	0.100447774
79	0x3e87b5ee	0.2650599
80	0x3d77bd94	0.06048353
81	0xbdf25314	-0.11832252
82	0xbd13c1c9	-0.03607348
83	0xbdb6cb63	-0.08925512
84	0x3cd2c060	0.025726497
85	0x3d819ebe	0.06329106
86	0xbcc1e9e5	-0.0236711
87	0xbe9099a5	-0.2824222
88	0x3e59d811	0.21273829
89	0xbdb5ba37	-0.08873408
90	0xbe1b5230	-0.15168071
91	0xbd966d3f	-0.07345056
92	0x3e96cf90	0.29455233
93	0xbe4344b6	-0.1906918
94	0x3c0b08d5	0.008485992
95	0xbe4bf76a	-0.199186
96	0xbdbbded8	-0.091733634
97	0x3e80280e	0.2503056
98	0xbdbb759e	-0.09153293
99	0xbe62b93b	-0.22140972
100	0x3e1db8a5	0.15402468
101	0x3e286eab	0.16448466
102	0x3d540f3a	0.051772334
103	0xbd886fb9	-0.066619344
104	0x3dddbb20	0.10826707
105	0xbd85efe1	-0.06539894
106	0xbcfddf04	-0.030990131
107	0x3cdbd8dd	0.026836807
108	0xbd17efc1	-0.03709388
109	0xbe2a36b7	-0.16622435
110	0x3de0721b	0.10959264
111	0x3df50a6b	0.11964878
112	0xbe9815c3	-0.29704103
113	0x3e4f1122	0.2022138
114	0xbe1edc19	-0.15513648
115	0x3b0f178c	0.0021834103
116	0x3e80b286	0.25136203
117	0x3bbb5258	0.0057166032
118	0xbe64d912	-0.22348431
119	0x3d37d3b8	0.044879645
120	0x3e3d531a	0.18488732
121	0xbdcbbbde	-0.09947942
122	0x3dc62c87	0.09676462
123	0x3d037659	0.032095287
124	0xbee937a8	-0.45550275
125	0xbd686b5c	-0.05674301
126	0xbe1a3459	-0.15059032
127	0xbd493fef	-0.049133237
128	0x3d3e5e9a	0.046476938
129	0xbc226ac8	-0.009913154
130	0xbd8abc32	-0.06774177
131	0x3e9cab09	0.3059924
132	0x3df63d26	0.12023382
133	0xbd91aba2	-0.071128145
134	0xbcc528d6	-0.024067324
135	0x3ca13290	0.01967743
136	0x3e21c1e9	0.15796627
137	0x3e8660e2	0.2624579
138	0x3e16d59e	0.14729926
139	0x3d18458a	0.037175693
140	0x3c3a92a6	0.011387503
141	0xbcf047de	-0.029331144
142	0x3e26449e	0.16237113
143	0xbecd6210	-0.40113878
144	0x3e052314	0.13001662
145	0xbd9a9e4a	-0.075497225
146	0x3ddcd5fc	0.10783002
147	0x3d0a4571	0.03375763
148	0x3e5591ab	0.20856349
149	0x3e17bd8b	0.14818399
150	0xbd7490fc	-0.05970858
151	0xbd714694	-0.0589052
152	0x3db2c204	0.08728412
153	0xbd53e743	-0.05173422
154	0x3e066938	0.13126075
155	0xbe20f419	-0.15718116
156	0x3d31d32d	0.043414284
157	0xbe10b762	-0.14132455
158	0x3d8ef820	0.0698092
159	0x3e81b1e1	0.25331023
160	0xbe3555a0	-0.17708445
161	0xbe12163e	-0.14266297
162	0xbe0ddb09	-0.13853087
163	0x3db441f7	0.08801644
164	0xbdd9134d	-0.105993845
165	0xbcc18f65	-0.023627946
166	0x3e09c8fd	0.13455577
167	0x3c0a65c2	0.0084471125
168	0xbdf8a361	-0.12140537
169	0x3e1806c8	0.14846337
170	0xbd5e7aae	-0.054316215
171	0xbdc8fc80	-0.098137856
172	0xbd1f7916	-0.038933836
173	0x3d1da737	0.038489547
174	0xbe3e5cd5	-0.185901
175	0xbdf231c5	-0.11825899
176	0x3d38ae0b	0.045087855
177	0x3d1d3e0e	0.038389258
178	0xbd1090a1	-0.03529418
179	0xbe61346e	-0.21992657
180	0x3e1c62f6	0.15272126
181	0x3cf1deb5	0.02952514
182	0x3ba2d349	0.004969035
183	0x3daf8b14	0.08571449
184	0xbe1b946b	-0.15193336
185	0xbdaecb33	-0.08534851
186	0x3ca1c885	0.019748935
187	0x3de853f9	0.113441415
188	0xbb41f3a3	-0.0029594682
189	0x3d85fa22	0.0654185
190	0x3d7a14b2	0.061054893
191	0xbd9d9ea6	-0.076962754
192	0x3dbbdd46	0.09173064
193	0x3d0c20fe	0.03421115
194	0x39677628	0.00022073893
195	0xbdbb036b	-0.09131511
196	0xbe3b1360	-0.1826911
197	0x3d107fe9	0.035278235
198	0xbdd8f5e5	-0.10593776
199	0xbe8ce18b	-0.27515826
200	0x3d4c08cc	0.049813077
201	0xbdc2411f	-0.09485077
202	0xbe29f474	-0.16597158
203	0x3e2d39a3	0.16916518
204	0x3e50aeb5	0.20379145
205	0xbdbf8860	-0.09352183
206	0x3bc384a5	0.00596674
207	0x3c2af6bf	0.010434805
208	0xbd942855	-0.07234255
209	0xbd548ce9	-0.051892195
210	0xbe5a688f	-0.21328948
211	0xbeaa24aa	-0.33231097
212	0x3e1f0b00	0.1553154
213	0xbce15f1e	-0.027511176
214	0xbe2528fa	-0.16128913
215	0x3df07599	0.1174118
216	0x3b8d7fc4	0.0043182094
217	0xbe0b8748	-0.13625824
218	0x3de18bdc	0.11013004
219	0x3ceb1ceb	0.028700313
220	0xbe4ad5d2	-0.19808128
221	0x3eb46b09	0.3523791
222	0xbe199910	-0.14999795
223	0xbe0245a7	-0.12721883
224	0x3d87ddb3	0.06634083
225	0x3dd4dff5	0.10394279
226	0xbc93a1a2	-0.018021408
227	0x3c2eac54	0.010661203
228	0xbdc6976c	-0.0969685
229	0xbd80998e	-0.06279288
230	0x3bb90d27	0.00564732
231	0xbcc747c3	-0.02432621
232	0x3e5d75c2	0.21626952
233	0xbe381cb8	-0.17979705
234	0xbe6b79d6	-0.22995695
235	0xbe8b30c1	-0.27185634
236	0x3d31df6f	0.043425974
237	0xbd88ac43	-0.06673481
238	0x3d4a8d9e	0.049451463
239	0x3e1cde34	0.15319139
240	0xbecb1114	-0.39661467
241	0xbc47cc18	-0.012194656
242	0xbd869f10	-0.065733075
243	0xbe62f68a	-0.2216436
244	0x3ddbf15d	0.10739396
245	0xbd849232	-0.06473197
246	0x3d8d3602	0.06895067
247	0xbdfbf449	-0.12302453
248	0x3dc6bd37	0.097040586
249	0x3d80469f	0.0626347
250	0xbd892c8a	-0.06697948
251	0xbe30fb10	-0.17283273
252	0xbdb539fd	-0.08848951
253	0xbd9a01ba	-0.075198606
254	0xbd7290a7	-0.059219982
255	0x3dbfaaa0	0.09358716

fc1.bias f4 [5]
0	0xbd2bc815	-0.04193886
1	0x3d6256dd	0.05525862
2	0x3beb6cb4	0.0071845893
3	0x3c054e92	0.008136408
4	0xbcad7be6	-0.021177243
