basline_model/Baseline_lstm.pt (torch, 901891 bytes, 10 tensors)

bi_lstm1.weight_ih_l0 f4 [512, 50]
0	0x3d4b09b9	0.04956982
1	0xbcedf9c7	-0.029049767
2	0x3baefe7d	0.005340396
3	0x3d3c50bb	0.045975428
4	0xbdfbb9c8	-0.12291294
5	0x3d5618a4	0.052269593
6	0xbcc02204	-0.02345372
7	0x3d08b7d5	0.03337844
8	0x3c8b1c7f	0.016981361
9	0x3c24ef37	0.010066799
10	0x3d6051bd	0.05476545
11	0xbc151950	-0.009100273
12	0x3c8387b7	0.016055925
13	0xbca00c3d	-0.019537086
14	0xbc8df2d3	-0.017327702
15	0x3cb2c3bb	0.021821847
16	0x3ab39042	0.0013699608
17	0x3b5416d9	0.003236225
18	0x3daea629	0.08527786
19	0x3c129f67	0.008949137
20	0xbd2f2994	-0.04276426
21	0xbd434fd7	-0.047683563
22	0xbc8bba07	-0.017056478
23	0xbaa5cda8	-0.0012649791
24	0xbcc27eb7	-0.023742063
25	0x3c7995cb	0.015233467
26	0x3d239b60	0.0399431
27	0x3d23c321	0.03998101
28	0xbdcc14c2	-0.09964897
29	0x3d29a1ed	0.04141419
30	0x3d3abed7	0.045592155
31	0x3d6bfff0	0.057617128
32	0x3cf42afd	0.029805655
33	0xbd68c6ea	-0.056830324
34	0xbdaba402	-0.083808914
35	0xbd2a52d3	-0.041582894
36	0x3dbaa8a7	0.09114199
37	0xbc2293eb	-0.009922962
38	0x3d3dc4e1	0.046330336
39	0xbd717b2f	-0.058955368
40	0x3de07f9a	0.10961838
41	0xbccfda7e	-0.02537274
42	0x3d62b921	0.055352334
43	0xbbc86275	-0.0061152526
44	0xbc86cb76	-0.01645444
45	0x3cdb1b58	0.026746437
46	0xbcccae97	-0.024985595
47	0x3cbbbf16	0.022918265
48	0xbc29ea6b	-0.010370831
49	0xbbe602c2	-0.0070193717
50	0xbdc7c8e7	-0.09755116
51	0xbd9e7557	-0.077372245
52	0x3da61a4b	0.08110484
53	0xbd245f85	-0.040130157
54	0x3d5ae965	0.05344524
55	0x3e0fe9df	0.14054058
56	0x3ac1123a	0.0014730163
57	0xbdc45e54	-0.09588304
58	0x3d59680f	0.053077754
59	0x3d6d6aa4	0.05796303
60	0xbcb5c4db	-0.022188595
61	0x3d4150aa	0.047196068
62	0x3d01a64c	0.031652734
63	0x3d8927df	0.06697058
64	0xbd024475	-0.031803567
65	0xbb0c7fc5	-0.0021438461
66	0x3c7f30ec	0.015575629
67	0x3d6e5981	0.058190826
68	0xbd612ea6	-0.054976128
69	0xbda4b93d	-0.08043144
70	0x3cf12e30	0.02944097
71	0x3ccfa136	0.025345426
72	0x3da58e20	0.08083749
73	0x3d67c4df	0.056584235
74	0x3d1314e4	0.035908595
75	0x3d60607d	0.05477952
76	0x3d3da001	0.04629517
77	0x3da4e4cf	0.08051454
78	0xbda4591f	-0.08024811
79	0x3d87ffe1	0.06640602
80	0xbd9f1874	-0.07768336
81	0xbd916a26	-0.07100324
82	0xbd41891d	-0.047249902
83	0xbc02ea76	-0.00799047
84	0x3d9f401b	0.07775899
85	0xbc8bbcee	-0.017057862
86	0xbd3cd9fa	-0.046106316
87	0x3d847e93	0.064694546
88	0x3cd26451	0.0256826
89	0x3d4832f9	0.048876736
90	0x3c313c9d	0.010817674
91	0xbd10e4e6	-0.035374545
92	0x3b1fb72d	0.0024370656
93	0x3c660e77	0.014041535
94	0xbca51981	-0.020153763
95	0xbd8638a7	-0.06553774
96	0x3d1ba3dc	0.037998065
97	0xbd180e2e	-0.037122898
98	0xbd9ff16f	-0.07809722
99	0xbcbd1a50	-0.023083836
100	0x3d8ffeb3	0.07031002
101	0xbce8af2f	-0.028403847
102	0x3d233046	0.03984096
103	0x3cdf1c04	0.027235039
104	0xbdabff0f	-0.08398258
105	0xbd377032	-0.044784732
106	0x3db1421d	0.08655188
107	0xbc9c4bd4	-0.019079126
108	0x3dd2aa4f	0.1028639
109	0x3cdc24a4	0.02687294
110	0x3d695fa4	0.056975976
111	0x3d3b5c29	0.045742188
112	0x3db12ea3	0.086514734
113	0xbd8994c9	-0.06717832
114	0x3cd57d8b	0.02606084
115	0x3da8e705	0.082471885
116	0x3d603e96	0.054747187
117	0x3d9be3e2	0.076118246
118	0xbd6479f4	-0.055780366
119	0xbd66ca08	-0.056345016
120	0xbd870928	-0.06593543
121	0x3c8e47a7	0.01736815
122	0x3d8c9df8	0.06866068
123	0xbd5ecdcb	-0.05439548
124	0x3d5ea17f	0.054353233
125	0xbd47a090	-0.04873711
126	0xbdda530b	-0.106603704
127	0x3c8b6c8d	0.017019534
128	0x3d1ad47a	0.03780029
129	0x3da8fa14	0.082508236
130	0xbd0826d7	-0.033240166
131	0x3c5511c0	0.01300472
132	0x3d97424d	0.07385693
133	0x3d36a7fa	0.04459379
134	0x3d9e85e0	0.077403784
135	0x3d9226ea	0.071363285
136	0x3d99b5c1	0.0750537
137	0x3cf4fef1	0.029906722
138	0xbd964fc1	-0.073394306
139	0xbd7be8df	-0.06150138
140	0xbd748a6f	-0.059702333
141	0xbbe1dbb7	-0.006892647
142	0xbd325b7c	-0.043544278
143	0x3c8189f0	0.015812844
144	0x3c7b5921	0.015341074
145	0xbd03f025	-0.03221144
146	0x3d483760	0.048880935
147	0x3cf992b9	0.03046547
148	0x3d057d94	0.032590464
149	0x3d6c9732	0.05776138
150	0xbcef1ef1	-0.029189559
151	0x3dcab112	0.09897055
152	0xbbac66c5	-0.0052612745
153	0xbc421a04	-0.011847023
154	0xbd996269	-0.074894734
155	0xbd6e8d7d	-0.058240402
156	0xbd66389e	-0.056206338
157	0xbc627826	-0.013822591
158	0x3d6c2825	0.057655472
159	0xbcc7b911	-0.024380239
160	0xbd73740d	-0.059436847
161	0x3cd81239	0.026375877
162	0x3ceb3291	0.028710635
163	0x3d94d48c	0.072671026
164	0xbd3d7424	-0.04625334
165	0x3ceae695	0.028674403
166	0xbd5c3953	-0.053765606
167	0xbc46ffcb	-0.012145947
168	0xbdac3d2d	-0.08410106
169	0xbd35751a	-0.04430113
170	0xbd200f72	-0.03907723
171	0x3d119b2e	0.03554838
172	0x3bb4d1d5	0.005518178
173	0x3c9a42cd	0.018830681
174	0x3dc109e5	0.09425715
175	0x3db60357	0.08887356
176	0x3d87b517	0.06626337
177	0xbbccf0f0	-0.006254308
178	0xbd8c2de8	-0.068446934
179	0x3da2a566	0.079417035
180	0x37fe78eb	3.0335466e-05
181	0xbc0c717d	-0.00857198
182	0xbd94588b	-0.07243451
183	0xbcb0963e	-0.021556016
184	0xbd7ff24b	-0.062486928
185	0x3daeb164	0.08529928
186	0xbd9d4bd8	-0.07680482
187	0xbd8d58fe	-0.069017395
188	0x3c5f27d5	0.013620337
189	0xbd6b4ff0	-0.05744928
190	0x3cedcd47	0.029028548
191	0xbd12d961	-0.03585184
192	0xbd584acd	-0.05280571
193	0xba408304	-0.00073437416
194	0x3d733835	0.059379775
195	0xbd6464dd	-0.055760253
196	0x3d4a8d95	0.04945143
197	0x3d574023	0.0525514
198	0x3ddc6938	0.107622564
199	0xbd93a556	-0.0720927
200	0x3c872a1c	0.016499572
201	0xbe15e98c	-0.14639872
202	0xbd088696	-0.033331476
203	0xbd976f39	-0.07394261
204	0x3de1e7c8	0.11030537
205	0x3d4b944e	0.04970198
206	0x3d939f88	0.072081625
207	0x3d094e8a	0.033522166
208	0x3daf58af	0.08561837
209	0x3d4085ce	0.047002606
210	0x3d190663	0.037359606
211	0x3bd73dea	0.00656866
212	0xbdeaf634	-0.11472741
213	0x3d19a363	0.037509333
214	0x3dd2e8a6	0.102982804
215	0x3dd42396	0.1035835
216	0x3e0febf6	0.14054856
217	0xbd6a4028	-0.05719009
218	0xbdd0100b	-0.1015931
219	0x3d3a2a46	0.04545047
220	0xbe2022e4	-0.1563831
221	0x3e392f2d	0.18084402
222	0xbde0b942	-0.10972835
223	0xbdd02d5d	-0.10164902
224	0x3dc85274	0.09781352
225	0x3da87d63	0.082270406
226	0xbbcd7d47	-0.0062710377
227	0x3dca5e2d	0.09881244
228	0x3e384c38	0.17997825
229	0x3dfb7d83	0.12279799
230	0xbd073a7c	-0.03301476
231	0x3cf7e5f1	0.030261012
232	0x3c81c0c3	0.015838986
233	0xbd2630da	-0.040573932
234	0x3cdb0d43	0.026739722
235	0x3e01b737	0.12667547
236	0xbb6c1129	-0.003602097
237	0x3ddb2dbf	0.10702085
238	0x3e20c66b	0.1570069
239	0xbdc2576e	-0.09489332
240	0xbdf38a07	-0.11891561
241	0x3d742620	0.05960667
242	0xbcd60a5c	-0.026127987
243	0x3d981788	0.07426363
244	0x3bcef74c	0.006316101
245	0xbdd246a7	-0.10267382
246	0xbe089b88	-0.1334058
247	0xbe434373	-0.19068699
248	0xbe234d7f	-0.15947531
249	0x3e10e77b	0.14150803
250	0x3d800a6e	0.06251989
251	0xbd74d3a3	-0.059772145
252	0xbb1d4ee0	-0.0024003312
253	0x3c776b0a	0.015101204
254	0x3c8093e6	0.015695523
255	0x3be6a736	0.007038976

bi_lstm1.weight_hh_l0 f4 [512, 128]
0	0x3ca005f6	0.019534092
1	0xbd046981	-0.03232718
2	0x3d471e85	0.04861309
3	0xbd32e05a	-0.04367099
4	0xbc09d109	-0.008411654
5	0x3d487a27	0.04894462
6	0x3ccde1b1	0.025132032
7	0x3d9ce4a0	0.07660794
8	0x3db2f6cd	0.0873848
9	0x3c406d36	0.011744788
10	0xbbd1df6b	-0.0064048073
11	0xbd7941f4	-0.060853913
12	0xbcec7a44	-0.028866895
13	0x3daa1860	0.083054304
14	0x3c766c70	0.015040502
15	0x3d02e277	0.031954255
16	0x3ab198cd	0.0013549567
17	0xbd06a0d7	-0.032868233
18	0xbd7902fa	-0.060793854
19	0x3d8d359f	0.06894993
20	0xbc48adf8	-0.012248509
21	0x3d98b114	0.0745565
22	0xbd464d41	-0.04841352
23	0xbd572bf6	-0.05253216
24	0xbd216b70	-0.0394091
25	0xbd0489a8	-0.03235784
26	0xbdb3fcd0	-0.087884545
27	0xbc8037f3	-0.015651679
28	0xbd846bc8	-0.0646587
29	0x3d1d225e	0.038362853
30	0xbccbb055	-0.024864355
31	0xbd970a72	-0.07375039
32	0x3dbb1860	0.091355085
33	0xbd414368	-0.047183424
34	0xbcdea0b3	-0.027176237
35	0xbd414fd7	-0.04719528
36	0x3da44214	0.08020416
37	0x3d775199	0.060380552
38	0xbd04f503	-0.032460224
39	0xbc6f7d4a	-0.014617274
40	0x3a8330c5	0.0010009041
41	0x3d8407e4	0.064468175
42	0x3c1f973f	0.00974065
43	0x3bc45ebb	0.005992738
44	0xbc9a53fd	-0.018838877
45	0xbd311804	-0.043235794
46	0x3d9198d5	0.071092285
47	0x3d279846	0.040916704
48	0x3d9609eb	0.073261105
49	0xbd36ec32	-0.044658847
50	0xbd0c0e18	-0.03419313
51	0xbcb93987	-0.022610439
52	0x3d7f1bb0	0.062282264
53	0x3c088daf	0.008334561
54	0xbd94542d	-0.07242618
55	0xbd0cb6b5	-0.03435393
56	0xbcbaf465	-0.022821615
57	0x3c90460c	0.017611526
58	0xbb9bc1b2	-0.004753315
59	0x3d6c4ff8	0.05769345
60	0x3d37d459	0.044880245
61	0x3d11f23e	0.03563141
62	0x3da089f5	0.07838813
63	0x3d75a7cf	0.059974488
64	0x3d8bb699	0.06821937
65	0xbdb44dc1	-0.08803893
66	0xbc427b36	-0.011870196
67	0x3c62eaca	0.013849923
68	0xbd338c6b	-0.043835085
69	0x3d886de3	0.06661584
70	0xbcc8a8ce	-0.024494555
71	0x3da03f8b	0.0782462
72	0x3c7f6589	0.015588173
73	0xbae1ef6f	-0.0017237494
74	0xbcb9457e	-0.022616144
75	0x3d4d1126	0.050065182
76	0x3cb16fb7	0.021659715
77	0x3cb26758	0.021777794
78	0x3d8d9897	0.0691387
79	0xbda5aa3c	-0.0808911
80	0xbc9d0c9d	-0.019171054
81	0x3ce23f45	0.02761806
82	0xbd1b5bae	-0.03792923
83	0xbbd33a7c	-0.006446181
84	0xbc304728	-0.0107591525
85	0x3ced457a	0.028963793
86	0xbd3db01b	-0.046310525
87	0xbd31465e	-0.043279998
88	0x3da8e5e7	0.082469754
89	0x3d81593f	0.063158505
90	0xbdb45668	-0.08805543
91	0xb9acc3ab	-0.0003295218
92	0x3da497d4	0.080367714
93	0xbd68c8bd	-0.056832064
94	0xbd0be0a0	-0.034149766
95	0x3d64fb42	0.05590368
96	0xbcb50a0e	-0.022099521
97	0x3ca42576	0.020037394
98	0x3d63422c	0.05548303
99	0xbcc7a89a	-0.024372388
100	0xbd711fc5	-0.05886819
101	0xb9a211bc	-0.0003091226
102	0xbd71674c	-0.058936402
103	0x3d829a2b	0.063770615
104	0xbd67ee89	-0.05662397
105	0x3cba2036	0.022720437
106	0x3daf97fb	0.0857391
107	0x3d04b4a8	0.03239885
108	0xbce4d6ec	-0.027934514
109	0x3d348ebd	0.04408144
110	0x3af34db4	0.0018562586
111	0x3d440e1b	0.047865015
112	0x3cefd5b5	0.029276708
113	0xbb93a4b1	-0.0045057167
114	0xbd042acd	-0.03226738
115	0xbcff07e0	-0.031131685
116	0xbd27f5b5	-0.04100581
117	0x3beb5fb2	0.0071830386
118	0x3c9454b2	0.018106792
119	0xbd652821	-0.055946473
120	0x3c9a1904	0.018810757
121	0x3baa703b	0.005201367
122	0x3d8aaa75	0.06770793
123	0x3d6eafb9	0.05827305
124	0x3d666855	0.056251843
125	0x3d742412	0.05960471
126	0xbc341a4c	-0.010992598
127	0xbd6a435a	-0.057193138
128	0xbc810e42	-0.015753869
129	0xbda9e84b	-0.082962595
130	0x3d810704	0.06300166
131	0xbd0b586b	-0.03401987
132	0x3c9d79b7	0.019223077
133	0x3d0c6d10	0.034283698
134	0xbd9e005b	-0.077149116
135	0x3d87184c	0.06596431
136	0x3da7337a	0.08164115
137	0xbd87ba7f	-0.06627368
138	0xbca0c261	-0.019623937
139	0xbd964c6b	-0.07338794
140	0x3d001421	0.031269196
141	0x3d0911e7	0.03346434
142	0x3d0eabee	0.034831934
143	0x3c13ad63	0.009013507
144	0xbdad59e6	-0.084644124
145	0x3d5a68cf	0.05332261
146	0x3c987b37	0.01861344
147	0x3d090bb8	0.03345844
148	0x3d85f4a3	0.065408014
149	0xbd54a4a6	-0.051914833
150	0xbd7c9a16	-0.061670385
151	0xbd1c5086	-0.03816273
152	0x3a205831	0.0006116657
153	0xbd405499	-0.04695568
154	0xbd56b791	-0.052421156
155	0xbc816334	-0.015794374
156	0x3d07a910	0.033120215
157	0x3c18e13c	0.009331044
158	0xbd97c8dd	-0.074113585
159	0xbd7da3c9	-0.061923776
160	0xbdaaa13e	-0.08331536
161	0x3a2a850f	0.00065048126
162	0x3d2eea21	0.04270375
163	0x3dac6203	0.08417132
164	0xbd65db85	-0.056117553
165	0xbd997efc	-0.074949235
166	0x3d293db0	0.041318595
167	0xbdaac976	-0.08339207
168	0x3d4ad0b8	0.049515456
169	0x3d8a157e	0.067423806
170	0xbd24a20c	-0.040193602
171	0xbcf015f1	-0.029307337
172	0xbdae446c	-0.08509144
173	0xbd0cdb72	-0.034388967
174	0x3d3b18a2	0.04567779
175	0xbbe91a97	-0.0071137655
176	0x3cf76a44	0.030202039
177	0x3d89890a	0.06715591
178	0xbb9b3017	-0.0047359574
179	0x3ce46e27	0.027884556
180	0xbdacbce5	-0.08434466
181	0x3a9150ae	0.0011086666
182	0x3d065dde	0.032804362
183	0xbd56a5c0	-0.052404165
184	0x3c43e1b6	0.011955669
185	0xbd589c72	-0.052883573
186	0x3db990d0	0.09060824
187	0xbbfcf8e9	-0.007720102
188	0x3d3cc4f0	0.04608625
189	0xbcd74042	-0.026275758
190	0xbb89e34c	-0.004208004
191	0xbccb1cd3	-0.024794018
192	0x3d012597	0.03152999
193	0xbdb3636c	-0.087591976
194	0x3c769e2a	0.015052358
195	0xbd8243f5	-0.06360618
196	0xbc59e11d	-0.0132983
197	0xbd8c8c38	-0.06862682
198	0xbd1b54c2	-0.03792263
199	0xbd368da5	-0.044568677
200	0x3cfe13c9	0.031015294
201	0xba9ba8e8	-0.00118759
202	0xbda88bef	-0.08229815
203	0xbc03fd19	-0.008055949
204	0xbd460ecc	-0.048353955
205	0xbce3ca1d	-0.027806336
206	0x3d6c187f	0.05764055
207	0xbd9e8d5c	-0.07741806
208	0xbcfe3c4b	-0.03103461
209	0xbd810beb	-0.06301101
210	0xbcb586ef	-0.022159068
211	0x3cffd982	0.031231645
212	0xbda50b37	-0.0805878
213	0xbdabd534	-0.08390275
214	0xbd1a4858	-0.03766665
215	0xbd36097d	-0.044442642
216	0x3db47e49	0.088131495
217	0xbc9c6183	-0.019089466
218	0x3d1de15b	0.038544994
219	0xbc6af6fe	-0.014341114
220	0x3d5a72fa	0.053332306
221	0x3d730391	0.059329573
222	0xbd04b0d2	-0.03239519
223	0xbcfc5e64	-0.030806728
224	0x3d2ce66b	0.04221193
225	0xbdb3cf5b	-0.08779784
226	0x3bd84d21	0.0066009914
227	0xbd6aae5b	-0.057295185
228	0x3c927381	0.017877342
229	0xbd2c85b3	-0.042119693
230	0xbd8d33f3	-0.06894674
231	0x3db35d87	0.08758073
232	0x3d03dfeb	0.032195967
233	0xbda952f1	-0.08267773
234	0x3c264c85	0.01015008
235	0xbc5e4285	-0.013565664
236	0xbd93e8af	-0.07222115
237	0xbce38fd1	-0.027778538
238	0x3d631169	0.055436525
239	0xbce52267	-0.027970506
240	0xbc9fed03	-0.019522196
241	0x3d6b0080	0.057373524
242	0x3c5714cd	0.013127518
243	0x3dad4e1a	0.08462162
244	0xbc4e358b	-0.012586008
245	0x3ca8ad23	0.02059037
246	0xbd371672	-0.04469914
247	0x3db768ae	0.08955513
248	0x3d2f4ae4	0.04279603
249	0x3c94c429	0.018159943
250	0x3d882786	0.066481635
251	0xbd8873e4	-0.066627294
252	0xbdacb46f	-0.084328525
253	0xbd5115d5	-0.05104621
254	0xbd3b6999	-0.045755003
255	0x3cb448df	0.022007404

bi_lstm1.bias_ih_l0 f4 [512]
0	0x3d896638	0.0670895
1	0x3cac6e40	0.021048665
2	0x3dcc89ad	0.09987197
3	0xbd527e22	-0.05138982
4	0xbd1c380d	-0.03813939
5	0xbd239ba6	-0.03994336
6	0x3d7c0408	0.061527282
7	0x3cbbaaf4	0.022908665
8	0xbd5e4d3f	-0.054272886
9	0xbd604e8d	-0.05476241
10	0x3d9c2358	0.07623929
11	0xbcbb3c51	-0.02285591
12	0x3db1ed6c	0.08687863
13	0xbc67ea47	-0.014154977
14	0xbd885a32	-0.066578284
15	0x3d7a2461	0.06106985
16	0x3d4fa21e	0.050691716
17	0xbd82d715	-0.0638868
18	0xbaf8fe4b	-0.0018996684
19	0x3d493f6d	0.049132753
20	0x3dfbf751	0.12303031
21	0xbda84f5b	-0.08218261
22	0x3b9b82bf	0.0047458108
23	0x3dc853ba	0.097815946
24	0xbb2ba87c	-0.0026192954
25	0xbd347952	-0.044061013
26	0x3df62443	0.12018635
27	0x3db22f7d	0.08700464
28	0x3da69721	0.08134294
29	0x3e19a48a	0.15004173
30	0xbd01b62e	-0.03166788
31	0xbd7b9119	-0.061417673
32	0x3c964e2d	0.018347824
33	0x3e489ccb	0.19591062
34	0xbce7e3c9	-0.028306859
35	0x3df1a773	0.117995165
36	0xbce6d313	-0.02817682
37	0x3e457386	0.1928235
38	0x3d149ca4	0.036282197
39	0x3e4cb411	0.19990565
40	0xbcbafe9a	-0.022826482
41	0x3dc259d8	0.094897926
42	0x3d6ebb38	0.058284014
43	0x3d61d12d	0.055131126
44	0x3dcd1d23	0.10015323
45	0x3d0339f3	0.032037687
46	0xbccbd5ed	-0.024882281
47	0x3a989464	0.0011640904
48	0x3c2c3b5b	0.010512198
49	0xbbc72249	-0.006077085
50	0x3cd963e3	0.026536888
51	0xbcb8db0a	-0.022565383
52	0x3da3aa80	0.07991505
53	0xbd76dca9	-0.06026903
54	0x3b2e5f81	0.0026607218
55	0xbda8cd65	-0.08242301
56	0xbc8c7b2f	-0.017148582
57	0x3dcb2401	0.099189766
58	0x3d46a9de	0.04850184
59	0x3da8ef09	0.08248717
60	0x3d4eb107	0.050461795
61	0xbcce8d00	-0.025213718
62	0xbc81f60d	-0.015864396
63	0x3e01eb39	0.12687387
64	0x3db273ce	0.08713494
65	0x3d003829	0.03130356
66	0x3da50fe0	0.080596685
67	0x3da1901d	0.078888156
68	0x3d7adfce	0.061248593
69	0xbd8ac52f	-0.06775891
70	0x3d94ecef	0.07271754
71	0x3d715622	0.058920033
72	0x3da64da0	0.081202745
73	0x3e01855c	0.12648529
74	0x3d99320d	0.074802496
75	0x3d8f0c99	0.06984825
76	0xbc6f2bad	-0.014597815
77	0x3e14f61a	0.14547005
78	0xbd988d96	-0.074488804
79	0xbca4885f	-0.020084558
80	0x3d5ac3d3	0.05340941
81	0xbdb45554	-0.088053375
82	0xbd488e9a	-0.04896412
83	0x3dd9bea1	0.10632063
84	0x3c063db8	0.008193426
85	0x3d2a7882	0.04161883
86	0x3e8010d1	0.2501283
87	0x3dc48c5d	0.09597085
88	0xbd4359c7	-0.04769304
89	0xbd1f26dc	-0.03885542
90	0x3da7ce56	0.08193652
91	0x3e1b8fc2	0.15191558
92	0xbd121cab	-0.03567187
93	0x3d881b17	0.06645792
94	0x3d97d145	0.07412962
95	0x3d12cf35	0.03584214
96	0xbcb9b107	-0.022667421
97	0x3d2b4b67	0.041819956
98	0xbd6d236e	-0.057895117
99	0x3d9380d5	0.07202307
100	0xbd995ec0	-0.07488775
101	0x3d9b0861	0.075699575
102	0x3d6004a3	0.054691922
103	0x3d64711e	0.05577194
104	0xbc8504c1	-0.016237618
105	0x3e0e7efb	0.13915627
106	0x3c77e6d8	0.015130721
107	0xbd9a6e4c	-0.07540569
108	0xbd0e5867	-0.034752276
109	0x3cc452c4	0.023965247
110	0x3dbd47c3	0.09242203
111	0xbd633cc1	-0.05547786
112	0xbd99fd09	-0.07518966
113	0x3d1e597d	0.03865956
114	0x3d672862	0.056434996
115	0x3c4d7ab0	0.012541458
116	0xbd69a548	-0.05704239
117	0x3ba30a7f	0.0049756165
118	0x3dd13acb	0.10216292
119	0x3d8a6405	0.067573585
120	0x3dbdbee1	0.09264923
121	0x3c0cc854	0.008592684
122	0x3db63e95	0.08898655
123	0xbc99aa6e	-0.018758025
124	0xbc3506e7	-0.011049009
125	0x3dac657c	0.08417794
126	0x3c8b212f	0.016983597
127	0x3d95bc30	0.073112845
128	0xbda6c955	-0.0814387
129	0xbcf8f04e	-0.030388024
130	0xbd305bd5	-0.043056328
131	0x3ce5576e	0.027995791
132	0xbc4ff047	-0.012691564
133	0xbdb11c64	-0.08647993
134	0xbd7f4106	-0.06231787
135	0xbc83b954	-0.016079582
136	0xbc3cddaa	-0.011527458
137	0xbd86ecbf	-0.065881245
138	0x3dd48470	0.10376823
139	0x3ccf8be9	0.025335269
140	0xbd4b8c46	-0.049694322
141	0xbd6f92ba	-0.05848954
142	0x3be97901	0.0071250205
143	0x3cb18a21	0.02167231
144	0xbd5189c5	-0.051156778
145	0xbdb61be3	-0.08892038
146	0xbaf70e16	-0.0018848802
147	0xbda27249	-0.079319544
148	0xbe33d2cc	-0.17560881
149	0xbd3bfd36	-0.045895778
150	0xbc2b0284	-0.0104376115
151	0x3d0159c1	0.031579737
152	0xbcc2ae69	-0.023764806
153	0xbcd63afc	-0.026151173
154	0xbdc3a76b	-0.09553417
155	0x3d96337a	0.07334037
156	0xbde1423c	-0.10998961
157	0xbe0cb736	-0.13741764
158	0xbd173cfd	-0.036923397
159	0xbd766930	-0.06015891
160	0xbde888b7	-0.11354201
161	0xbddb28bc	-0.10701129
162	0xbc5844a8	-0.013199963
163	0x3da4d5e4	0.08048609
164	0xbd140df6	-0.036146127
165	0xbe6445af	-0.22292207
166	0xbc2e7c07	-0.010649688
167	0xbdf40953	-0.11915841
168	0x3cb9f882	0.022701506
169	0xbcdb1956	-0.02674548
170	0x3d361310	0.044451773
171	0xbc92908f	-0.017891197
172	0xbda3ec96	-0.080041096
173	0xbd86c6ef	-0.06580912
174	0xbd6b9158	-0.057511657
175	0xbdb5bf61	-0.08874393
176	0xbdd9a6d3	-0.10627522
177	0xbd014c26	-0.03156676
178	0x3abf04cc	0.0014573573
179	0x3d8f0d56	0.069849655
180	0xbdd22131	-0.10260237
181	0xbc1ef821	-0.009702713
182	0xbe4dc86e	-0.20095989
183	0xbb19560e	-0.002339724
184	0xbe0b130d	-0.13581486
185	0xbd14a553	-0.036290478
186	0x3d8cd8b9	0.06877274
187	0xbd2a2c95	-0.041546423
188	0xbd384c2f	-0.04499453
189	0xbd5cd458	-0.053913444
190	0xbc07fbfe	-0.008299826
191	0xbe158247	-0.14600478
192	0xbc339fc9	-0.010963389
193	0xbe02b600	-0.1276474
194	0xbc3e452c	-0.011613172
195	0xbdad06e6	-0.084485814
196	0xbd911452	-0.07083954
197	0xbd197e36	-0.03747388
198	0xbccc9739	-0.024974452
199	0x3c6e3c34	0.014540721
200	0xbd406849	-0.046974454
201	0xbde002b3	-0.10938015
202	0xbd3b3fa5	-0.045714993
203	0xbdcf08d6	-0.10109107
204	0xbd0ea4d3	-0.034825157
205	0xbe014467	-0.1262375
206	0xbd9792f5	-0.07401077
207	0xbae39263	-0.0017362352
208	0xbd225919	-0.03963575
209	0x3d4b7fed	0.049682546
210	0x3d081f02	0.033232696
211	0x3d4ee3a9	0.050510082
212	0xbd25e079	-0.040497277
213	0x3d32f9b1	0.043695156
214	0xbd855c0b	-0.065116964
215	0xbdd013a8	-0.10159999
216	0x3d900cf3	0.0703372
217	0x3d710dd0	0.058851063
218	0xbdd275a4	-0.102763444
219	0x3af8be20	0.001897756
220	0x3d8c31de	0.06845449
221	0x3c881989	0.016613739
222	0x3caeb897	0.021328254
223	0x3d549c4a	0.05190686
224	0xbdd6b66c	-0.10484013
225	0x3d82cd3e	0.06386803
226	0x3d21218f	0.039338645
227	0xbbaa020c	-0.0051882323
228	0xbc2fe63d	-0.010736045
229	0xbd8fcd00	-0.070215225
230	0xbdac09ca	-0.084003046
231	0x3cf935df	0.030421196
232	0x3d3a3568	0.04546109
233	0xbe0c76d9	-0.13717212
234	0xbd5f2803	-0.054481518
235	0x3da57b72	0.08080186
236	0xbb98dd7f	-0.0046650763
237	0xbde29ddf	-0.11065268
238	0xbcc37678	-0.023860201
239	0xbc2c7299	-0.010525369
240	0xbd87d30e	-0.06632052
241	0xbd520f42	-0.051284082
242	0x3c835fa5	0.016036818
243	0x3dea64df	0.11445021
244	0xbd1a66ed	-0.037695814
245	0x3d3152aa	0.043291725
246	0xbd00074a	-0.03125695
247	0x3d812aa6	0.06306963
248	0xbd57d6ce	-0.052695088
249	0x3d8de4e1	0.06928421
250	0xbd46fdb0	-0.04858178
251	0x3d4a2139	0.04934809
252	0x3d3bd92c	0.045861408
253	0x3cecb79b	0.028896144
254	0xbdd39f6d	-0.103331424
255	0xbce8bd51	-0.028410586

bi_lstm1.bias_hh_l0 f4 [512]
0	0x3c062522	0.008187564
1	0x3dc811a6	0.09768991
2	0x3d81cda2	0.063380495
3	0xbd3797b2	-0.044822402
4	0x3c7aa782	0.015298726
5	0x3d6c39a4	0.057672158
6	0xbd9e9249	-0.077427454
7	0x3debb838	0.11509746
8	0xbd1ae2dd	-0.03781401
9	0x3daaa674	0.0833253
10	0x3d245ccc	0.04012756
11	0x3d95d36c	0.07315716
12	0x3d8b6abc	0.06807467
13	0x3d828c7c	0.063744515
14	0xbd14128e	-0.036150508
15	0x3d30f019	0.043197725
16	0x3d286622	0.041113026
17	0xbcf80fff	-0.030281065
18	0xbd485f8d	-0.04891925
19	0xbd3fdaff	-0.04683971
20	0x3dd61a15	0.104541935
21	0xbd9f3f93	-0.07775798
22	0x3b51e8e2	0.0032029678
23	0xbc788a29	-0.015169659
24	0xbd753b36	-0.05987092
25	0xbd3df7be	-0.046378843
26	0x3d774aad	0.06037395
27	0x3d4cfa3f	0.05004334
28	0x3da65d62	0.0812328
29	0x3dd57eaa	0.1042455
30	0x3d6e0790	0.05811268
31	0x3da78367	0.0817936
32	0x3dcc42a9	0.09973652
33	0x3defac4d	0.11702786
34	0xbd1f612f	-0.03891104
35	0x3dcd65e3	0.10029199
36	0x3d687904	0.056756034
37	0x3e45f436	0.1933144
38	0xbdab44f8	-0.08362764
39	0x3e06fa06	0.13181314
40	0x3c509cb2	0.012732672
41	0x3e07a59e	0.13246772
42	0xbc37a4e1	-0.011208744
43	0x3d877dd4	0.06615797
44	0xbcfbee65	-0.030753324
45	0xbd477fab	-0.048705738
46	0xbd123e3d	-0.035703886
47	0x3c9e46e5	0.019320915
48	0xbd1c21c5	-0.038118143
49	0xbc0f57c1	-0.0087489495
50	0x3dc5fc11	0.096672185
51	0xbda21919	-0.07914943
52	0x3c8cd676	0.017192107
53	0x3d5bccf7	0.053662267
54	0x3e0ca2f4	0.13734037
55	0xbd5362b9	-0.05160782
56	0x3d83f11e	0.06442474
57	0x3de24123	0.1104758
58	0x3d5d5cfe	0.054043762
59	0xbd36f27d	-0.04466485
60	0x3d8b1399	0.06790847
61	0xbc8fb63a	-0.017542947
62	0x3c3b72df	0.011440962
63	0x3d168813	0.036750864
64	0xbd442c91	-0.047894064
65	0x3d7b8e72	0.061415143
66	0xbc58ac42	-0.013224663
67	0x3c146fb3	0.009059834
68	0xbd40d585	-0.047078628
69	0xbd8496f7	-0.06474107
70	0x3d9a06e2	0.07520844
71	0xbd829d5d	-0.06377671
72	0x3cebd933	0.028790092
73	0x3d778d69	0.060437594
74	0xbd3b49d5	-0.04572471
75	0x3d6b6189	0.057466064
76	0x3db6568b	0.089032255
77	0x3ddadcae	0.106866226
78	0xbd8f20ed	-0.06988702
79	0xbd3a8dae	-0.045545273
80	0x3d8e5bef	0.06951129
81	0xbd9b683f	-0.07588243
82	0x3d39670a	0.04526428
83	0x3d8fd59f	0.07023167
84	0x3d854271	0.06506813
85	0x3b04134a	0.0020153099
86	0x3e222c28	0.15837157
87	0x3c9ee003	0.019393926
88	0x3da7756a	0.08176692
89	0x3d84ed17	0.06490534
90	0x3d019c74	0.031643346
91	0x3d8d7191	0.06906427
92	0x3dc50ca4	0.09621552
93	0x3e1a8de3	0.15093188
94	0x3d0b0044	0.0339358
95	0x3b20bf3f	0.0024528054
96	0x3d7ff398	0.06248817
97	0xbd7826e1	-0.060583953
98	0xbd4bd476	-0.049763165
99	0x3d115373	0.035479974
100	0x3cc51509	0.024057882
101	0x3dd124e5	0.10212115
102	0xbce3ff17	-0.027831597
103	0x3d646e23	0.055769097
104	0x3d1da565	0.03848781
105	0x3e38547f	0.18000983
106	0x3d27fad0	0.041010678
107	0x3b152928	0.0022760127
108	0x3c383644	0.011243407
109	0x3df639d9	0.12022752
110	0xbc94c8f4	-0.018162228
111	0x3d30f7d1	0.043205086
112	0x3d7b22e6	0.06131258
113	0x3dc369d6	0.09541671
114	0xbcc9299a	-0.02455597
115	0xbccb4dd3	-0.024817383
116	0x3d8db2e2	0.06918885
117	0xbd238003	-0.039917003
118	0xbd7ca4ac	-0.06168048
119	0xbb685a29	-0.003545413
120	0x3d35b6b6	0.0443637
121	0x3be34117	0.0069352495
122	0x3d88aec0	0.06673956
123	0x3d3cfdba	0.04614041
124	0xbd1c968d	-0.038229514
125	0xbc2e12ce	-0.010624601
126	0x3dc28f4b	0.09499987
127	0x3db97755	0.09055964
128	0x3d165330	0.036700428
129	0xbd3d88fd	-0.04627322
130	0x3d943388	0.07236391
131	0xbc2d38a3	-0.010572585
132	0xbda6563a	-0.08121915
133	0x3c11ed30	0.008906648
134	0x3c7b0e29	0.0153232
135	0x3d8b919d	0.06814883
136	0xbd340539	-0.043950293
137	0x3b828adf	0.00398384
138	0x3cf8ff33	0.030395126
139	0x3d975d51	0.073908456
140	0x3c5ecdc5	0.013598864
141	0x3c011031	0.0078773955
142	0xbda6822e	-0.081302986
143	0x3dab1cff	0.0835514
144	0xbd96ffaa	-0.07372983
145	0xbd3f5885	-0.04671528
146	0x3d3aaebb	0.045576792
147	0xbde5c67f	-0.11219501
148	0xbe4b168c	-0.1983282
149	0x3b1c5208	0.0023852605
150	0x3d67ef5b	0.05662475
151	0xbd2a0ff2	-0.041519113
152	0xbd1ad214	-0.037798002
153	0x3dd3010b	0.10302933
154	0xbd8937fd	-0.06700132
155	0xbd910a48	-0.07082039
156	0xbca28206	-0.01983739
157	0xbe3d7cd9	-0.18504657
158	0x3bf36f2e	0.007429025
159	0xbc6e4794	-0.014543433
160	0xbd5dca6c	-0.054148123
161	0xbe02e67e	-0.12783238
162	0x3d640a41	0.05567384
163	0xbd3a45f3	-0.045476865
164	0xbd5b5afe	-0.053553574
165	0xbe0fc34c	-0.14039344
166	0xbd460fc8	-0.048354894
167	0xbdb0d2f4	-0.08633986
168	0xbd8c11a2	-0.06839301
169	0xbb72cd91	-0.0037048797
170	0xbd11e422	-0.035617955
171	0xbc843d68	-0.016142562
172	0xbcca2c06	-0.024679195
173	0xbd611056	-0.05494722
174	0x3d2d9503	0.042378437
175	0xbcce0e09	-0.025153177
176	0xbd0acec0	-0.03388858
177	0xbd00c061	-0.031433467
178	0xbe17a3ad	-0.14808531
179	0xbc268e69	-0.010165789
180	0xbdea110f	-0.11429035
181	0xbd0fef6d	-0.035140444
182	0xbd499e47	-0.04922321
183	0xbbfab111	-0.0076505025
184	0xbcd023b5	-0.025407651
185	0xbcbae794	-0.022815503
186	0xbd4dc563	-0.05023707
187	0x3d07cac2	0.03315235
188	0xbc4c2c6c	-0.012461763
189	0xbd79c407	-0.060977962
190	0xbdcf43ff	-0.10120391
191	0xbd02b0bb	-0.031906825
192	0x3dad1127	0.08450537
193	0xbcab6401	-0.020921709
194	0x3cce8981	0.025212051
195	0x3d3f39e6	0.046686076
196	0xbd880cfd	-0.06643102
197	0x3ba500ee	0.005035511
198	0xbdb55caf	-0.088555686
199	0x3dadf765	0.084944524
200	0xbbc6cd5a	-0.0060669603
201	0xbce4b7e4	-0.027919717
202	0xbd570881	-0.052498344
203	0x3d2a1935	0.041527946
204	0xbc7b588a	-0.015340934
205	0xbccd6494	-0.025072373
206	0xbd2c145a	-0.042011596
207	0x3d1d3c54	0.03838761
208	0xbc012b9e	-0.007883934
209	0xbcc94d28	-0.024572924
210	0xbd4e1fd0	-0.050323308
211	0xbd043346	-0.03227546
212	0xbdd3ff22	-0.10351397
213	0xbc9e0a54	-0.019292034
214	0xbdbbb897	-0.09166067
215	0xbd8249d5	-0.063617386
216	0xbce907de	-0.028446134
217	0xbbc649a8	-0.006051261
218	0xbdc33782	-0.09532072
219	0xbc0950c5	-0.008381073
220	0xbcb2f9bc	-0.021847598
221	0xbdced549	-0.10099275
222	0xbc8e8acf	-0.017400173
223	0x3d5cbb75	0.05388971
224	0x3cd06144	0.025437005
225	0x3cd66622	0.026171748
226	0xbdd3db1f	-0.103445284
227	0x3d94cb5d	0.07265351
228	0xbce9f83c	-0.02856075
229	0xbdc08bdb	-0.09401675
230	0x3cc3955a	0.023874927
231	0x3d4852f8	0.04890725
232	0xbc192642	-0.0093475
233	0xbe8a41dd	-0.27003375
234	0x3c132f91	0.008983509
235	0xbd851a40	-0.064991474
236	0xbd79890b	-0.06092171
237	0xbda7a8c6	-0.08186488
238	0x3ce2a608	0.02766706
239	0xbcc61416	-0.0241795
240	0xbd83926a	-0.06424411
241	0xbc9e48af	-0.019321768
242	0xbdac3aab	-0.084096275
243	0x3df492b7	0.11942046
244	0x3d895f33	0.06707611
245	0xbd48b7e6	-0.049003504
246	0x3aa80994	0.0012820237
247	0x3ba21944	0.0049468596
248	0xbbad255a	-0.0052839937
249	0x3d984035	0.074341215
250	0xbcecb8fd	-0.028896803
251	0x3d8ec5c9	0.06971318
252	0xbdaaa206	-0.08331685
253	0xbd2d3490	-0.042286456
254	0xbdc124d1	-0.0943085
255	0xbd76253f	-0.060094114

bi_lstm2.weight_ih_l0 f4 [512, 128]
0	0xbda1a6fe	-0.07893179
1	0xbc1be942	-0.009516062
2	0xba8ab9d7	-0.0010583949
3	0x3d30869e	0.04309713
4	0x3d01ed33	0.03172035
5	0x3d2b38a1	0.041802052
6	0x3cb71f3f	0.022353766
7	0xbd3d5600	-0.046224594
8	0xbda23bac	-0.07921538
9	0xbc803b38	-0.015653238
10	0x3d05230f	0.032504138
11	0xbd4bd3e8	-0.049762636
12	0x3cc4a6a7	0.024005247
13	0xbd898b19	-0.06715984
14	0xbd7e020f	-0.062013682
15	0xbce2a798	-0.027667806
16	0x3d261655	0.04054864
17	0xbd42b39a	-0.047534563
18	0x3d0bad5a	0.034100868
19	0x3d393780	0.045218945
20	0x3da328dd	0.079667784
21	0xbd94c505	-0.07264141
22	0xbcd544e0	-0.026033819
23	0xbd8f79bc	-0.07005641
24	0x3b6e4cf8	0.0036361795
25	0xbd7c9933	-0.06166954
26	0x3c2b61fe	0.010460375
27	0x3cfd168c	0.03089454
28	0xbd58c0d4	-0.05291827
29	0x3a47bc1e	0.0007619279
30	0xbd558fa5	-0.052138943
31	0x3d823a70	0.06358802
32	0x3d7c92fe	0.06166362
33	0x3c3eda8a	0.011648783
34	0xbc3764e6	-0.01119349
35	0xbb8c1af8	-0.004275676
36	0xbc86a9fd	-0.016438479
37	0xbd02463d	-0.031805266
38	0x3d9cbf0f	0.07653629
39	0x3d470fbc	0.04859899
40	0xbd34b43c	-0.044117197
41	0x3d548b02	0.05189038
42	0xbd2130d7	-0.039353218
43	0xbdb4fc96	-0.088372394
44	0xbda2279e	-0.07917713
45	0x3cd91e1e	0.026503619
46	0x3da49acc	0.08037338
47	0xbd6d9fc0	-0.058013678
48	0xbc15291f	-0.009104042
49	0xbdae1187	-0.08499437
50	0x3d48a04a	0.04898099
51	0x3dab2465	0.08356551
52	0x3d7db9c8	0.061944753
53	0xbc9a046b	-0.018800935
54	0xbda435f4	-0.08018103
55	0xbda87ad2	-0.08226551
56	0xbc474642	-0.012162747
57	0xbd802bb8	-0.06258339
58	0xbce0eb7b	-0.027456036
59	0x3cedec35	0.029043296
60	0x3d8ac337	0.067755155
61	0xbc8e67c3	-0.017383462
62	0xbd8c6bb7	-0.068564825
63	0x3d8b1e21	0.06792856
64	0xbd366e5d	-0.044538844
65	0xbc8353ce	-0.016031172
66	0x3c2ada97	0.010428092
67	0xbbbe90b5	-0.0058155903
68	0xbd963da8	-0.07335979
69	0x3d0fad2f	0.03507727
70	0x3d35aebc	0.044356093
71	0x3cfcd365	0.03086252
72	0xbbbadb3b	-0.005702404
73	0xbdb2190d	-0.08696184
74	0x3dafd69c	0.08585855
75	0x3d969cc1	0.07354117
76	0x3d6a6ef8	0.057234734
77	0xbd404708	-0.04694274
78	0xbd821029	-0.063507386
79	0x3cb44f15	0.022010366
80	0x3d36f125	0.044663567
81	0xbb8706c6	-0.0041206805
82	0x3ceba7fe	0.028766628
83	0xbccb0e02	-0.024786953
84	0x3cc2cb4a	0.023778576
85	0xbc4625ca	-0.012093971
86	0x3d2ed972	0.04268784
87	0xbc915d99	-0.017744826
88	0x3dbd3a08	0.09239584
89	0xbd81705f	-0.06320261
90	0xbdb16aa2	-0.08662917
91	0xbd6248b2	-0.05524511
92	0x3c1a2339	0.009407812
93	0x3d95dac4	0.07317117
94	0x3da21cbd	0.07915638
95	0x3d919428	0.07108337
96	0x3d4fbbdb	0.050716262
97	0x3ca6d390	0.020364553
98	0x3d8c72d2	0.06857838
99	0x3da10642	0.07862522
100	0xbcc379f1	-0.023861857
101	0xbd91d156	-0.07120006
102	0xbca5cbb2	-0.020238731
103	0xbcd1e4f8	-0.025621876
104	0x3cc8bd9f	0.02450448
105	0x3d95eab9	0.073201604
106	0x3da6780a	0.081283644
107	0xbd950d72	-0.07277955
108	0x3cf8a693	0.030352866
109	0xbd7802c2	-0.060549505
110	0xbc57e843	-0.013177934
111	0xbd1a0a00	-0.037607193
112	0xbbe5b00a	-0.007009511
113	0xbd7eaea1	-0.062178258
114	0x3d2780ac	0.040894195
115	0x3d9011ae	0.07034622
116	0x3c466f29	0.012111464
117	0x3d816f17	0.06320017
118	0xbc27ebee	-0.010249121
119	0xbcbbf092	-0.022941861
120	0xbc9b40ff	-0.018951891
121	0x3bf3a0f8	0.0074349605
122	0x3d0dfa2c	0.03466241
123	0xbc3929eb	-0.011301498
124	0xbdb71047	-0.089386515
125	0xbd24d2ca	-0.040240087
126	0x3d4b449b	0.049625974
127	0xbd2a3fa5	-0.041564602
128	0x3d8a5e96	0.06756322
129	0x3d95efcc	0.07321128
130	0x3d177c52	0.036983795
131	0x3da11209	0.07864768
132	0x3d9aff37	0.075682096
133	0x3cf5aa28	0.029988363
134	0x3d6165ac	0.055028602
135	0xbdca5b84	-0.098807365
136	0x3da1fb77	0.07909291
137	0x3d6a3ef1	0.05718893
138	0xbde47a4b	-0.11156138
139	0xbda80d33	-0.082056426
140	0x3d13d0a6	0.036087655
141	0x3d8c9392	0.06864084
142	0xbbccfb62	-0.006255553
143	0xbd80a56a	-0.0628155
144	0x3d02bd9f	0.031919118
145	0xbcf0bfee	-0.029388394
146	0x3d9b1633	0.075725935
147	0xbc2d62d4	-0.0105826445
148	0x3b8eeb24	0.004361527
149	0xbd97d0d6	-0.07412879
150	0x3d7cfe74	0.061766103
151	0xbc9fbe69	-0.019499974
152	0xbd81dabb	-0.06340548
153	0x3be7719f	0.0070631052
154	0x3be173ef	0.0068802754
155	0xbb20ce72	-0.0024537113
156	0x3cce45d0	0.025179774
157	0xbd071abf	-0.03298449
158	0xbd1359d7	-0.03597435
159	0x3c8bb5fa	0.017054547
160	0x3caa83a2	0.02081472
161	0xbd624a8c	-0.055246875
162	0xbd6e46fb	-0.05817316
163	0xbce9c920	-0.028538287
164	0xbdaba294	-0.08380619
165	0x3dae6865	0.085160054
166	0xbbe13f6c	-0.0068740156
167	0xbc0b37de	-0.0084972065
168	0xb92aae34	-0.00016277359
169	0xbd921c94	-0.07134357
170	0x3cd16279	0.02555965
171	0x3d5516ae	0.052023582
172	0x3d8f49eb	0.069965206
173	0x3d556e8d	0.052107383
174	0x3d8aa0c9	0.067689486
175	0x3d045a54	0.032312706
176	0xbd693f9b	-0.056945425
177	0x3c3f64cc	0.011681747
178	0x3d415ff3	0.047210645
179	0xb98b8f7f	-0.0002661906
180	0xbcfb6596	-0.030688088
181	0xbc8c59d7	-0.017132683
182	0x3d525cb7	0.05135795
183	0xbd51dbdc	-0.051235065
184	0x3ca24452	0.019807968
185	0x3da4df7a	0.08050437
186	0x3d96d231	0.073643096
187	0x3db46778	0.088087976
188	0x3c86a1e8	0.016434625
189	0xbdb74b48	-0.08949906
190	0xbd2ca312	-0.042147703
191	0xbd52cc5f	-0.051464435
192	0x3d2a9e25	0.041654725
193	0xbc044fa4	-0.008075628
194	0xbcd74159	-0.026276277
195	0xbc6b3bbc	-0.0143575035
196	0x3d4f1b88	0.050563365
197	0xbdafe9f3	-0.08589544
198	0x3d0adbc0	0.033900976
199	0xbd1e8cfb	-0.03870867
200	0x3c0b191f	0.008489876
201	0xbd32c1fb	-0.043642025
202	0xbd788426	-0.0606729
203	0xbbdfc053	-0.0068283468
204	0x3d407627	0.04698768
205	0xbd553e4a	-0.052061357
206	0x3bc123a6	0.005894142
207	0xbd585b99	-0.05282173
208	0x3d089bea	0.033351816
209	0xbd8285a3	-0.063731454
210	0x3dbab406	0.09116368
211	0xbd9ab920	-0.07554841
212	0x3d1e7dd6	0.038694225
213	0x3d9b5345	0.07584242
214	0x3d6fb482	0.058521755
215	0xbd1c3fdc	-0.03814684
216	0x3da97fea	0.08276351
217	0x3dceddd0	0.10100901
218	0xbd0808ad	-0.0332114
219	0xbd576fbb	-0.05259679
220	0x3c53b6ed	0.012922031
221	0xbda329a5	-0.079669274
222	0x3ccc3ce2	0.024931375
223	0x3d342ff5	0.043991048
224	0x3d38d203	0.045122158
225	0xbd52bb4d	-0.051448155
226	0xbc18a94a	-0.009317705
227	0xbc98a0c1	-0.018631341
228	0x3c49f38a	0.012326131
229	0xbc891018	-0.016731307
230	0xbb303981	-0.0026889744
231	0xbd3390f0	-0.043839395
232	0x3d3672f9	0.04454324
233	0x3da61015	0.08108536
234	0xbd86b39b	-0.06577226
235	0x3c82c5f1	0.015963526
236	0xbdabd6dd	-0.08390591
237	0xbd7d5e1a	-0.06185732
238	0x3d85fc0c	0.06542215
239	0xbcefa999	-0.029255675
240	0x3d2b9d64	0.041898146
241	0x3d604056	0.054748856
242	0x3d2ed914	0.04268749
243	0xb9fbc044	-0.000480177
244	0xbd4c3723	-0.04985727
245	0x3c8d90b7	0.01728092
246	0xbd5cc325	-0.05389704
247	0xbd9b4ac4	-0.0758262
248	0x3cb57cf8	0.022154316
249	0x3d8709a1	0.065936334
250	0xbad9e890	-0.0016625095
251	0xbce5135f	-0.027963338
252	0xbc9f16e5	-0.019420097
253	0x3c278460	0.010224432
254	0x3b8ef22d	0.0043623657
255	0xbccfba41	-0.025357367

bi_lstm2.weight_hh_l0 f4 [512, 128]
0	0x3c1d6d48	0.009608574
1	0x3c5d0eee	0.013492329
2	0x3cc6bf40	0.024261117
3	0x3da47676	0.08030407
4	0xbaf25f1b	-0.0018491478
5	0xbce0a178	-0.027420744
6	0xbcf5ee47	-0.030020846
7	0xbd662072	-0.056183286
8	0x3d0f361e	0.03496372
9	0x3d96ff4f	0.07372915
10	0x3d65f536	0.056142054
11	0x3d7afcaa	0.061276115
12	0x3ce7df92	0.028304849
13	0xbcc4c255	-0.024018446
14	0x3c3dea08	0.011591442
15	0xbd1c8a7f	-0.038218018
16	0x3d09dfd3	0.03366072
17	0x3d1c58f9	0.03817079
18	0xbcb1f8d9	-0.021725105
19	0xbc09b059	-0.008403861
20	0x3c7d47e2	0.015459033
21	0x3d468869	0.048469935
22	0xbd85d27d	-0.06534288
23	0xbb9b8cac	-0.004746994
24	0x3bce53e0	0.00629662
25	0x3d612293	0.054964613
26	0x3cbb24e8	0.022844747
27	0x3b1a55e0	0.002354972
28	0x3c04838c	0.008088004
29	0x3d9564d9	0.07294626
30	0xbd3e4f8c	-0.04646258
31	0xbd2f4b27	-0.04279628
32	0x3d237ba9	0.039912853
33	0xbdbcec0b	-0.09224709
34	0x3cab9798	0.020946309
35	0x3d5f025d	0.054445613
36	0xbd502015	-0.050811846
37	0xbbcaea67	-0.0061924937
38	0xbbcb3a21	-0.006201998
39	0x3d220e2f	0.039564308
40	0x3da9ad26	0.082849786
41	0x3da02fe6	0.07821636
42	0xbd55f210	-0.052232802
43	0xbd22c997	-0.039743032
44	0x3dae1412	0.08499922
45	0xbd88f994	-0.06688228
46	0xbd9579f5	-0.07298652
47	0xbcb01db2	-0.021498535
48	0x3c798f1a	0.015231872
49	0x3d675b01	0.056483272
50	0x3cdc3407	0.026880277
51	0x3d6e51fc	0.058183655
52	0xba45977d	-0.0007537527
53	0x3ba4ec80	0.005033076
54	0xbd30e96a	-0.04319135
55	0xbd991438	-0.074745595
56	0x3d717311	0.058947627
57	0xbd791352	-0.06080944
58	0xbb70d733	-0.0036749362
59	0x3c13da46	0.009024208
60	0x3ceb7547	0.028742446
61	0x3d3049cd	0.043039132
62	0xbdac4ecf	-0.08413469
63	0xbd85d2fd	-0.065343834
64	0xbcee861d	-0.029116685
65	0x3d14f03b	0.036361914
66	0xbd782663	-0.060583483
67	0x3d55eb65	0.052226443
68	0x3d69fc2a	0.057125248
69	0xbd98515c	-0.07437393
70	0xbd59084d	-0.052986432
71	0xbce2f49a	-0.027704526
72	0xbd3d98fe	-0.046288483
73	0xbd523303	-0.05131818
74	0x3d97755a	0.0739543
75	0x3dbd2e05	0.09237293
76	0x3d41edea	0.047346033
77	0x3d56c017	0.052429285
78	0x3d973032	0.073822394
79	0x3d42ad44	0.04752852
80	0x3d77c7f7	0.060493436
81	0x3cd0b90a	0.025478859
82	0xbd82530c	-0.06363496
83	0xbd76b2b0	-0.060229003
84	0x3da06a1a	0.07832737
85	0x3bdc4b2b	0.006722828
86	0xbd87831a	-0.066168025
87	0x3d07f534	0.03319283
88	0x3d5e03f5	0.054202992
89	0xbd315466	-0.04329338
90	0x3d2b9938	0.041894168
91	0xbd710f12	-0.058852263
92	0x3ca3fa8f	0.020016937
93	0x3b350233	0.002761972
94	0xba954307	-0.0011387774
95	0x3d2814ef	0.04103559
96	0xbba779b1	-0.0051109423
97	0xbd84ca0e	-0.064838514
98	0x3c453866	0.012037372
99	0xbda804a0	-0.08204007
100	0x3d3d43e6	0.04620733
101	0x3d8e7277	0.06955426
102	0x3c9dd069	0.019264417
103	0x3ca9c4ad	0.020723665
104	0x3c95945d	0.018259222
105	0xbbf1b318	-0.007376086
106	0xbd4976dd	-0.049185622
107	0xbdb15b73	-0.08660021
108	0x3da5ea74	0.08101359
109	0x3d96973c	0.073530644
110	0x3d8343fd	0.06409452
111	0x3c6e2ccd	0.0145370485
112	0x3d521cd6	0.05129703
113	0xbd3b1670	-0.045675695
114	0x3d3753ac	0.04475753
115	0xbc65c5d3	-0.014024216
116	0x3d3f502e	0.046707325
117	0xbd6de05b	-0.05807529
118	0x3bd694f2	0.0065485174
119	0x3d8b0bc9	0.06789357
120	0x3d9d8551	0.07691444
121	0xbc406829	-0.011743584
122	0x3cff9ad0	0.03120175
123	0x3d4dff0b	0.050292056
124	0xbda65b5c	-0.08122894
125	0xbc31a632	-0.010842847
126	0xbc83bb31	-0.01608047
127	0xbd818202	-0.06323625
128	0x3daa0d07	0.08303266
129	0x3cf1afd9	0.029502796
130	0xbd2c889c	-0.04212247
131	0xbd573937	-0.0525448
132	0x3caea284	0.021317728
133	0x3d35bc12	0.04436881
134	0x3db8c637	0.090221815
135	0x3d43f960	0.047845244
136	0x3ca8aa67	0.020589067
137	0xbd88329a	-0.066502765
138	0xbdc673d7	-0.096900634
139	0x3b8e0071	0.0043335487
140	0xbd303294	-0.043016985
141	0xbdaca90c	-0.08430681
142	0x3db8240c	0.089912504
143	0xbccab6ff	-0.024745462
144	0xbd689455	-0.056782085
145	0xbd13901c	-0.036026105
146	0x3d3fd6e3	0.04683579
147	0xbbf20d19	-0.0073868153
148	0x3d96bc9e	0.073601946
149	0x3db752bf	0.089513294
150	0x3db433d2	0.087989464
151	0xbd0fbf0c	-0.035094306
152	0x3d14c41b	0.036319833
153	0xbd1857df	-0.037193175
154	0x3d9a9281	0.07547475
155	0xbc49fd56	-0.012328466
156	0xbd26a6f6	-0.04068657
157	0x3ca5a2f8	0.020219311
158	0x3d9bc360	0.07605624
159	0xbcb72481	-0.022356274
160	0xbc9e1083	-0.019294983
161	0x3c798356	0.015229067
162	0x3d6964f7	0.056981053
163	0xbd837224	-0.06418255
164	0x3d1898ee	0.03725522
165	0x3d81bc29	0.06334717
166	0xbd1c0fc1	-0.03810096
167	0x3d9d00c0	0.07666159
168	0xbcd20373	-0.02563641
169	0x3b4a752e	0.0030892598
170	0xbdb7c662	-0.089733854
171	0xbcdb05cd	-0.026736164
172	0x3d9a9eae	0.07549797
173	0xbb40c1a9	-0.0029412305
174	0x3d2c0c81	0.042004112
175	0x3ccd4d42	0.025061253
176	0x3c953b3e	0.018216725
177	0x3d24e9a9	0.0402619
178	0x3d0fb9a9	0.03508917
179	0x3caa4ff5	0.02079008
180	0xbd859bcd	-0.06523857
181	0xbd692969	-0.056924257
182	0x3ce978c8	0.028499976
183	0xbd6510cd	-0.055924226
184	0x3d9d993b	0.07695242
185	0x3d1b6818	0.03794107
186	0x3d99a592	0.07502283
187	0x3d3bac39	0.04581854
188	0x3c828855	0.015934149
189	0xbd0dadd9	-0.034589622
190	0xbd7afed2	-0.06127817
191	0x3b64eefe	0.003493249
192	0x3db3b9b9	0.08775658
193	0xbd0c423a	-0.034242846
194	0xbd3a2b70	-0.04545158
195	0x3d833972	0.06407441
196	0x3cdfa4c5	0.027300248
197	0x3daef0d7	0.0854203
198	0xbd3695cb	-0.044576447
199	0xbd84e760	-0.06489444
200	0xbce29eb6	-0.02766357
201	0x3d0f4e58	0.034986824
202	0x3da913cb	0.08255728
203	0x3d7819e8	0.06057158
204	0xbd7b4f26	-0.06135478
205	0x3c2667b0	0.010156557
206	0xbd319ac1	-0.043360475
207	0xbd8aef66	-0.06783943
208	0x3d9157e7	0.07096844
209	0xbcbb753b	-0.022883048
210	0x3c2cd9e8	0.01055
211	0x3d27d389	0.04097322
212	0xbd897a29	-0.06712753
213	0xbd148198	-0.036256403
214	0x3d5a0dd0	0.05323583
215	0xbc9fd517	-0.019510789
216	0xbd910319	-0.07080669
217	0xbd98245d	-0.07428811
218	0x3d8c8cd5	0.06862799
219	0xbd1d2005	-0.038360614
220	0x3d7448f0	0.05963987
221	0xbcecf6cc	-0.028926276
222	0xbd8469e9	-0.06465513
223	0xbac8a4da	-0.0015307919
224	0xbcacf00c	-0.021110557
225	0x3d3f60a2	0.046723016
226	0x3d0f506b	0.034988802
227	0xbd8de248	-0.06927925
228	0xbd8dd378	-0.069251
229	0x3da3de8f	0.08001434
230	0x3ca41a34	0.020032026
231	0xbd2e6079	-0.042572472
232	0xbd5bd455	-0.053669292
233	0xbd57b382	-0.052661426
234	0xbce87634	-0.028376676
235	0xba5d6208	-0.0008445089
236	0x3d7dbcd0	0.061947644
237	0xbdbae5be	-0.09125851
238	0xbdab170b	-0.083540045
239	0xbd684626	-0.056707524
240	0x3d3df338	0.04637453
241	0x3c6f6238	0.0146108195
242	0x3cdfe576	0.027331095
243	0x3d0e4644	0.03473498
244	0x3d206f7c	0.03916882
245	0x3cf037a2	0.029323403
246	0xbdb294f4	-0.08719817
247	0x3d37f1d7	0.04490837
248	0x39d2f277	0.00040234972
249	0xbd45dd02	-0.048306473
250	0x3d324358	0.043521255
251	0xbc6c588c	-0.014425408
252	0x3d84427a	0.06457992
253	0xbb41be4b	-0.0029562886
254	0x3da539e7	0.080676846
255	0xbd9c4fd7	-0.07632416

bi_lstm2.bias_ih_l0 f4 [512]
0	0x3dfc8ee8	0.12331945
1	0x3e186f9f	0.1488633
2	0xbc773694	-0.015088696
3	0x3e63fce6	0.22264442
4	0x3ccd4e46	0.025061738
5	0xbd08a0e3	-0.03335656
6	0x3e11015b	0.14160673
7	0x3e0f13b0	0.13972354
8	0xbcb00835	-0.021488288
9	0x3d854dc0	0.0650897
10	0x3e588d6e	0.21147701
11	0x3d97ceff	0.07412528
12	0x3dff416e	0.124636516
13	0x3e16df1d	0.14733548
14	0x3c8d872d	0.01727637
15	0x3e1c8bb2	0.15287665
16	0x3e6e1880	0.23251534
17	0x3d07dacf	0.033167657
18	0xbd8233dc	-0.06357548
19	0x3d8ad300	0.06778526
20	0xbd0c6599	-0.03427658
21	0x3e194613	0.14968137
22	0x3cda8695	0.026675502
23	0x3cb5b845	0.022182593
24	0xbc9deb88	-0.01927735
25	0x3d9e9fd0	0.077453256
26	0x3d80a21a	0.062809184
27	0xbb6c1c54	-0.0036027627
28	0x3d01d422	0.031696446
29	0x3e179059	0.14801158
30	0x3d9f2a09	0.077716894
31	0x3d0d2c00	0.03446579
32	0x3d63bf9f	0.055602666
33	0x3cf894f3	0.030344462
34	0xbd0a0b6a	-0.03370229
35	0x3e627d2c	0.22118062
36	0x3da5bee9	0.08093054
37	0x3e0df999	0.13864745
38	0xbd37dba0	-0.044887185
39	0x3d58657d	0.05283116
40	0x3e1af2fc	0.15131754
41	0x3c64438f	0.013932123
42	0x3d2486e4	0.040167704
43	0x3ce7deda	0.028304506
44	0x3dca56ce	0.09879838
45	0x3dbaccd9	0.09121103
46	0xbc8a6721	-0.016894879
47	0x3d8e41f4	0.06946173
48	0xbd04b470	-0.03239864
49	0xbc24b7a2	-0.010053547
50	0x3e24bef9	0.16088475
51	0x3a728507	0.000925139
52	0x3e09400c	0.13403338
53	0x3e076926	0.13223705
54	0xbcb1bf19	-0.021697568
55	0x3c2fbab9	0.0107256705
56	0x3e45e489	0.1932546
57	0x3c2bb3aa	0.010479847
58	0x3cd91eb1	0.026503893
59	0xbd8d0ed5	-0.068875946
60	0xbcccc87b	-0.02499794
61	0x3dafc4e4	0.08582476
62	0x3ccb86cd	0.024844551
63	0x39d61358	0.00040831673
64	0x3ea8c011	0.32959035
65	0xbd34ec67	-0.044170763
66	0x3db86353	0.090033196
67	0xbd3dd7f0	-0.046348512
68	0x3d87efb1	0.066375144
69	0xbcbb44ea	-0.02286001
70	0xbd2ece98	-0.042677492
71	0x3d93b2b8	0.07211822
72	0x3b226d82	0.002478451
73	0xbd815bcd	-0.06316338
74	0x3d864f25	0.06558064
75	0x3d2be778	0.041968793
76	0x3e0d900e	0.13824484
77	0xbd1be352	-0.038058586
78	0x3d1346ba	0.035956122
79	0x3df194b5	0.11795942
80	0x3dc057a0	0.09391713
81	0x3e0c37dd	0.13693185
82	0x3d552a53	0.052042317
83	0x3c8441dd	0.016144687
84	0x3de251f9	0.11050791
85	0x3d6aad37	0.057294097
86	0x3dc8db4b	0.09807452
87	0xbd288d23	-0.041150223
88	0xbb758fbb	-0.0037469703
89	0x3d339b09	0.043849025
90	0xbd6d9069	-0.05799905
91	0xbb0441ae	-0.002018075
92	0x3e04a53d	0.12953658
93	0x3e12c603	0.14333348
94	0x3dd50023	0.10400417
95	0x3dd4cacd	0.10390244
96	0x3dd00dc3	0.10158875
97	0x3d822d5c	0.06356308
98	0xbd605ea4	-0.054777756
99	0x3d026783	0.031836998
100	0x3d6a31c3	0.057176363
101	0xbd6379de	-0.055536143
102	0xbd2874bd	-0.041126955
103	0x3e15198f	0.14560531
104	0x3da3dbb1	0.08000887
105	0xbd4a767b	-0.049429398
106	0x3dc2b3be	0.09506939
107	0xbd486df1	-0.048932973
108	0xbb19cf60	-0.0023469552
109	0x3e59682e	0.21231148
110	0xbd00efbf	-0.03147864
111	0xbd6d638e	-0.05795627
112	0x3cff6ee8	0.031180814
113	0x3cdf61f9	0.027268397
114	0x3de11ee0	0.10992217
115	0x3d7095fe	0.058736794
116	0xbd3895f8	-0.045064896
117	0x3d3ed768	0.046592146
118	0x3d380437	0.044925895
119	0x3e50df73	0.20397739
120	0x3d61530b	0.055010837
121	0x3da6f2f3	0.08151808
122	0x3d443e8d	0.047911216
123	0x3c099933	0.008398342
124	0xbcd24958	-0.025669739
125	0xbc48e2f6	-0.012261143
126	0x3deb6d5e	0.114954695
127	0x3e7b3432	0.2453163
128	0x3c83e65e	0.016101059
129	0xbb3be139	-0.0028668179
130	0x3d0a1e36	0.033720218
131	0xbe3deac8	-0.18546593
132	0xbcdcc65d	-0.026950056
133	0xbdbaba0d	-0.091175176
134	0xbd70a584	-0.058751598
135	0xbda8f42b	-0.08249696
136	0x3d7dfe24	0.062009946
137	0xbdb21a69	-0.086964436
138	0xbca2b35c	-0.019860916
139	0xbca8f5a8	-0.02062495
140	0xbdc87701	-0.09788323
141	0xbd55a015	-0.05215462
142	0xbd8a2213	-0.067447804
143	0xbe07afd9	-0.13250674
144	0xbe027026	-0.12738094
145	0xbc54b3d8	-0.012982331
146	0xbd9613db	-0.07328006
147	0xbddab7b2	-0.10679568
148	0xbc834ea1	-0.016028704
149	0xbe118a12	-0.14212826
150	0x3d90d845	0.070725
151	0xbdbf53b7	-0.09342139
152	0x3c3d4fa2	0.0115546305
153	0xbda34171	-0.07971466
154	0xbd859b8b	-0.06523808
155	0x3d1cc0cb	0.0382698
156	0xbe017cf8	-0.12645328
157	0xbdc5f334	-0.09665528
158	0x3d0ebdf7	0.034849133
159	0xbcfec37b	-0.031099072
160	0xbd501744	-0.050803438
161	0xbddcfddc	-0.10790607
162	0xbda914e1	-0.082559355
163	0xbe2a161f	-0.16610001
164	0xbd8b276c	-0.067946285
165	0xbe209048	-0.15680039
166	0x3c66d3f0	0.014088616
167	0x3cacfbf3	0.021116232
168	0xbe0deb9f	-0.13859414
169	0xbdca9b0b	-0.09892853
170	0x3c604a5b	0.013689603
171	0xbdb99342	-0.0906129
172	0xbda017a0	-0.07817006
173	0xbdcf08ed	-0.10109124
174	0x3c1efdd3	0.009704071
175	0xbd544e44	-0.051832452
176	0x3d87e7b3	0.0663599
177	0xbca9b138	-0.020714387
178	0xbe36291f	-0.17789124
179	0xbc259e3b	-0.010108526
180	0xbd5ce4b9	-0.053929064
181	0xbd7612e3	-0.060076606
182	0xbd9b901e	-0.075958475
183	0xbd8a170c	-0.06742677
184	0xbd510753	-0.051032376
185	0x3d4fbb97	0.05071601
186	0xbc6079d8	-0.013700925
187	0x3cc35688	0.023844972
188	0xbdea20d1	-0.114320405
189	0x3a29865a	0.00064668583
190	0xbc139dd1	-0.009009794
191	0xbdfca3f9	-0.12335963
192	0xbe2a5879	-0.16635312
193	0xbd3e6d41	-0.04649091
194	0xbe10820a	-0.14112106
195	0x3c229967	0.009924269
196	0xbd85d956	-0.06535594
197	0x3d011dae	0.031522445
198	0xbd9d79a6	-0.07689218
199	0x3be43f01	0.0069655185
200	0xbd3c34c4	-0.04594876
201	0x3c6092c3	0.013706866
202	0xbcc9cffb	-0.024635306
203	0xbdb2404e	-0.087036714
204	0xbde941a7	-0.11389475
205	0xbc1ca3ab	-0.009560506
206	0xbe164aac	-0.14676923
207	0xbdc79035	-0.09744302
208	0xbd89a57b	-0.06721016
209	0xbe1fc9f5	-0.15604384
210	0x3d2c374e	0.04204493
211	0xbcb02390	-0.021501333
212	0x3c8b346e	0.016992774
213	0x39c058c8	0.0003668724
214	0xbdcd9372	-0.100378886
215	0x3c3d7ebd	0.011565861
216	0xbcc1c119	-0.023651646
217	0xbd8a2961	-0.06746174
218	0x3cad404e	0.021148827
219	0x3c949ad6	0.018140238
220	0xbe0b1239	-0.1358117
221	0xbde62bdd	-0.11238835
222	0xbe3acf0a	-0.18243042
223	0xbe026281	-0.12732889
224	0xbc80ac0a	-0.015707035
225	0x3d4d1e31	0.05007762
226	0xbd1a54f3	-0.03767867
227	0x3c6d9cba	0.014502699
228	0xbdc23c4a	-0.094841555
229	0x3d025b0e	0.031825118
230	0xbd0d1e7b	-0.034452897
231	0xbd0af124	-0.033921376
232	0xbd4f40fb	-0.05059908
233	0xbd35e9aa	-0.044412293
234	0x3d61163a	0.054952838
235	0xbd482b63	-0.0488695
236	0x3d38b369	0.045092974
237	0xbe0f774c	-0.14010352
238	0xbd5b18a0	-0.05349028
239	0xbd1e45c7	-0.038640764
240	0x3cc2cabd	0.023778314
241	0xbd961aa9	-0.07329304
242	0x3cdc6b81	0.02690673
243	0xbd8ff8c9	-0.07029874
244	0x3d31d56a	0.043416418
245	0xbd818b3c	-0.06325385
246	0xbd0184ed	-0.03162091
247	0xbe8c1e10	-0.27366686
248	0x3d33d309	0.04390243
249	0xbda2c821	-0.07948328
250	0x3b8c46db	0.0042809076
251	0x3cccaf09	0.024985807
252	0xbaebe752	-0.0017998016
253	0xbd972402	-0.07379915
254	0xbbfdf567	-0.0077502015
255	0xbd92b7f5	-0.07163993
